distillation/models/simple.pt (torch, 740941 bytes, 90 tensors)

conv1.weight f4 [16, 3, 3, 3]
0.36634988 0.8752295 0.49977544 0.3334682 0.21952313 0.29652974 -0.23226972 -0.47357696
-0.3114469 -0.60011023 -0.50621843 -0.66352516 -0.15634893 -0.73152876 -0.50954485 0.3210709
-0.38237482 -0.10284263 -0.2736063 -0.00019256635 -0.09476463 -0.162183 -0.032556348 -0.043639645
0.20206676 0.044755578 0.25446603 0.5711256 0.27178934 -0.16407575 0.7266706 0.40264934
-0.9246434 -0.16357401 0.05966371 -0.20481348 0.6120783 -0.29987952 -1.1659571 0.84598553
-0.09348649 -1.5975523 0.40496954 0.0904769 -0.43331897 0.6501224 0.11529742 -0.74485224
1.0462608 0.53056365 -1.2782637 0.7739776 0.41342705 -0.5303847 0.35526058 0.986294
0.36111766 0.048404805 0.2553568 0.74691284 -0.26540497 -1.6426569 -0.14830147 -0.19630194
0.2024817 0.21489663 -0.40392563 -0.4408427 0.70635194 0.07730093 -1.4837455 0.18710011
-0.21510287 -0.2327754 -0.28016144 -0.27959415 -0.11480785 0.46687996 0.3422019 -0.4702703
0.69231296 0.53928137 0.87187815 0.7347981 0.15058438 0.22444884 -0.15356159 -0.22557567
-0.5944824 -0.72005785 0.6429181 0.92045444 0.8062869 -0.25011545 -0.041803807 -0.40483364
-0.6087533 -0.99485046 -0.9521022 0.6723162 0.7382454 0.52857345 0.13944064 0.16953053
-0.33718938 -0.16797423 -0.54681915 -0.9660358 -0.49043983 -0.68003196 -0.45838958 -0.7203233
-1.172506 -0.9290636 -0.09736156 -0.779421 -0.3806344 0.15338297 0.33987492 -0.042837694
0.22301218 0.5074312 0.007672419 -0.03191074 -0.16592756 -0.3198568 0.11588061 0.78844285
0.07620179 0.66113216 1.6246828 0.7693214 0.106959656 0.69892293 0.09022414 -0.022434449
-0.04948799 0.0005221912 -0.16014041 -0.20952724 0.005981996 0.10594175 0.041412268 0.2828706
0.13586353 -0.057299953 0.0760335 -0.026198592 -0.12219775 0.069656156 0.16586854 0.1335389
0.23606229 0.09944943 -0.04410072 0.042813256 -0.04846209 -0.01858697 -0.060498454 0.185405
0.09235132 0.29724935 -0.52604866 -1.0441499 -0.7655603 0.1514192 -0.24725144 -0.19273016
1.0069567 1.2058812 0.6013313 0.040330227 -0.5423661 0.03947544 0.09981361 -0.24806087
0.052187003 0.27520728 0.53025 0.09290809 0.3023043 -0.21918789 0.19437285 0.24786624
-0.26528266 0.055451084 -0.043441195 -0.15131746 -0.43573314 -0.5504462 -0.30217898 0.14090383
-0.17406882 -0.2977666 0.46342406 -0.08222262 -0.3218026 0.1655734 -0.25666493 -0.20391122
0.11657068 0.15842041 -0.11558937 0.37508067 0.35866034 -0.074822545 0.32426128 -0.36914948
-0.457813 -0.3047701 -0.038582604 -0.22138844 -0.031978942 0.21274838 -0.2874188 -0.0067253583
-0.3675896 -0.22691712 0.17314447 -0.08723131 0.28210083 0.2581891 0.002707221 0.20866284
0.046117634 -0.25411978 -0.050312545 0.07090276 -0.0018649742 0.12326378 0.17272098 -0.07414388
0.119780906 0.050217394 -0.2057285 0.01468308 0.30648053 0.054788824 0.23586498 0.17575908
-0.18556066 -0.051633716 -0.14159256 -0.23178503 -0.18022966 -0.13243797 0.17275728 -0.09128593
0.084224135 0.2176976 0.0049231974 0.12747188 -0.27751344 0.0505729 0.15406573 -0.024235526
00000000: 3692 bb3e 0a0f 603f 91e2 ff3e 58bc aa3e
00000010: acca 603e bfd2 973e 1dd8 6dbe ae78 f2be
00000020: f875 9fbe d3a0 19bf 8897 01bf c9dc 29bf
00000030: ef19 20be 7845 3bbf 8871 02bf 6863 a43e
00000040: a2c6 c3be 289f d2bd 2016 8cbe a3eb 49b9
00000050: f513 c2bd 4d13 26be ce59 05bd 7cbf 32bd
00000060: 97ea 4e3e a051 373d 5f49 823e 4a35 123f
00000070: f927 8b3e 7903 28be 1607 3a3f 0e28 ce3e
00000080: 6eb5 6cbf f27f 27be ef61 743d a0ba 51be
00000090: 2ab1 1c3f cf89 99be 153e 95bf 8292 583f
000000a0: d875 bfbd 987c ccbf 2b58 cf3e f44b b93d
000000b0: fcdb ddbe 6c6e 263f 0e21 ec3d a3ae 3ebf
000000c0: e0eb 853f 05d3 073f 259e a3bf 6523 463f
000000d0: b6ac d33e 4bc7 07bf b7e4 b53e c37d 7c3f
000000e0: 6ae4 b83e 1e44 463d 20be 823e ae35 3f3f
000000f0: 29e3 87be 9542 d2bf 57dc 17be 6003 49be
00000100: 5d57 4f3e dd0d 5c3e 57cf cebe 22b6 e1be
00000110: 7bd3 343f f34f 9e3d 5feb bdbf 2c97 3f3e
00000120: ed43 5cbe ad5c 6ebe 5271 8fbe f726 8fbe
00000130: 6120 ebbd e40a ef3e 1635 af3e 45c7 f0be
00000140: 6c3b 313f 580e 0a3f 6833 5f3f ba1b 3c3f
00000150: cb32 1a3e ebd5 653e 403f 1dbe 4ffd 66be
00000160: 0030 18bf b655 38bf 4896 243f e7a2 6b3f
00000170: d168 4e3f 220f 80be 783a 2bbd 5b46 cfbe
00000180: 42d7 1bbf 85ae 7ebf f8bc 73bf ea1c 2c3f
00000190: a7fd 3c3f 9750 073f 87c9 0e3e 6999 2d3e
000001a0: 16a4 acbe 7001 2cbe 57fc 0bbf 1f4e 77bf
000001b0: ee1a fbbe 9316 2ebf 0ab2 eabe 1c67 38bf
000001c0: ad14 96bf 1dd7 6dbf 7f65 c7bd 2288 47bf
000001d0: 83e2 c2be 6d10 1d3e 1604 ae3e 9476 2fbd
000001e0: 4e5d 643e 03e7 013f ea68 fb3b d6b4 02bd
000001f0: eae8 29be 45c4 a3be d052 ed3d 64d7 493f
00000200: af0f 9c3d f53f 293f 9bf5 cf3f 3ff2 443f
00000210: aa0d db3d 9dec 323f 6fc7 b83d 73c8 b7bc
00000220: ebb3 4abd a9e3 083a d9fb 23be 4f8e 56be
00000230: 9f04 c43b fdf7 d83d e99f 293d 6ad4 903e
00000240: cf1f 0b3e 5bb3 6abd 74b7 9b3d 6e9e d6bc
00000250: d042 fabd e3a7 8e3d 71d9 293e 6cbe 083e
00000260: 50ba 713e 25ac cb3d f5a2 34bd f45c 2f3d
00000270: 2f80 46bd b443 98bc 3acd 77bd cfda 3d3e
00000280: b022 bd3d 1131 983e 20ab 06bf b4a6 85bf
00000290: c3fb 43bf a20d 1b3e 7b2f 7dbe 0e5b 45be
000002a0: f5e3 803f 515a 9a3f d9f0 193f 4f31 253d
000002b0: 81d8 0abf 00b1 213d 146b cc3d ab03 7ebe
000002c0: 0ac2 553d f8e7 8c3e 77be 073f 9946 be3d
000002d0: a1c7 9a3e ca72 60be ad09 473e a6d0 7d3e
000002e0: 21d3 87be ad20 633d 65ef 31bd f7f2 1abe
000002f0: 6a18 dfbe 0bea 0cbf 34b7 9abe 1849 103e
00000300: 193f 32be dd74 98be eb45 ed3e 5564 a8bd
00000310: 4fc3 a4be 138c 293e 9669 83be 1ace 50be
00000320: 9cbc ee3d f638 223e 1fba ecbd 930a c03e
00000330: 54a2 b73e 903c 99bd 9305 a63e 2901 bdbe
00000340: 7766 eabe d40a 9cbe cb08 1ebd a7b3 62be
00000350: 5afc 02bd b6da 593e 8f28 93be 6560 dcbb
00000360: b434 bcbe f65c 68be c94c 313e 54a6 b2bd
00000370: 856f 903e 5d31 843e a26b 313b b6ab 553e
00000380: d8e5 3c3d fd1b 82be 8714 4ebd 7735 913d
00000390: 2672 f4ba b871 fc3d c5dd 303e bfd8 97bd
000003a0: b14f f53d c1b0 4d3d 7eaa 52be 4d91 703c
000003b0: 04eb 9c3e 3f6a 603d 9786 713e 30fa 333e
000003c0: 9d03 3ebe e07d 53bd a4fd 10be 0e59 6dbe
000003d0: 208e 38be d29d 07be 49e7 303e 1ef4 babd
000003e0: b47d ac3d 1fec 5e3e c652 a13b fd87 023e
000003f0: 3e16 8ebe 8725 4f3d 68c3 1d3e 9589 c6bc

conv1.bias f4 [16]
0.006652905 0.024020927 -0.07520561 0.0059388103 0.027672436 0.011996225 0.015457902 0.0041726045
-0.08330507 0.058987845 0.053743992 -0.07681759 -0.0626405 0.028255397 -0.03210879 -0.0429202
00000000: 9d00 da3b 89c7 c43c 6605 9abd 5a9a c23b
00000010: 4eb1 e23c d18b 443c 2443 7d3c 58ba 883b
00000020: d99b aabd 3d9d 713d a922 5c3d 8a52 9dbd
00000030: aa49 80bd dd77 e73c 8284 03bd 17cd 2fbd

bn1.weight f4 [16]
0.6812889 1.0514623 0.84587353 1.0355626 1.0437617 0.3141633 0.9741598 1.2197288
0.54841757 0.7616189 0.8115469 1.6619292 0.69794804 0.94491345 0.7659626 1.0046997
00000000: f368 2e3f 5196 863f 2b8b 583f 518d 843f
00000010: fc99 853f 03da a03e 8962 793f 1320 9c3f
00000020: 1865 0c3f 75f9 423f 8ac1 4f3f 19ba d43f
00000030: b9ac 323f d9e5 713f 2016 443f 009a 803f

bn1.bias f4 [16]
0.07500976 0.74235654 0.801619 0.61772704 0.50012124 -0.5776157 0.09378679 -0.4381376
-0.5051108 -0.14057167 -0.5695346 -0.61363965 0.5386595 0.031747293 0.42759845 1.692658
00000000: b89e 993d 140b 3e3f e736 4d3f 5c23 1e3f
00000010: f207 003f 9fde 13bf 4a13 c03d 9253 e0be
00000020: f14e 01bf 05f2 0fbe 05cd 11bf 7d17 1dbf
00000030: 97e5 093f 7309 023d 2fee da3e 04a9 d83f

bn1.running_mean f4 [16]
0.36574465 -0.008366172 0.060473233 0.04636756 -0.47195753 -0.17948523 0.06835866 0.38778883
-0.19972484 -0.30265915 0.06200649 0.26247045 -0.031251665 0.21271084 -0.2080383 -0.1214417
00000000: e242 bb3e 4512 09bc c8b2 773d e9eb 3d3d
00000010: 6ba4 f1be faca 37be a0ff 8b3d 428c c63e
00000020: ab84 4cbe 24f6 9abe 84fa 7d3d 8762 863e
00000030: bf01 00bd dfd0 593e fe07 55be 6db6 f8bd

bn1.running_var f4 [16]
1.108619 5.4330835 1.5964237 5.8693495 2.684355 0.3506645 1.482298 1.3552924
0.33393708 0.81833696 0.36358723 2.1053076 0.4494857 0.84483624 1.0994772 0.7045497
00000000: 3ae7 8d3f d2db ad40 9d57 cc3f b6d1 bb40
00000010: 79cc 2b40 4c8a b33e f1bb bd3f 397a ad3f
00000020: cdf9 aa3e 887e 513f 1b28 ba3e 5cbd 0640
00000030: fd22 e63e 3047 583f abbb 8c3f 5e5d 343f

seq32_32.0.conv1.weight f4 [16, 16, 3, 3]
0.20588686 0.08466524 0.03427716 0.053128675 -0.012258382 -0.070920885 0.106663555 0.022157857
-0.0710903 -0.17927316 -0.17383808 -0.07135869 -0.36305663 -0.32801813 -0.40694478 -0.17876765
-0.20233028 -0.17040944 -0.18021268 -0.08413468 0.16574757 -0.066721134 -0.21199028 0.102153726
0.06754527 0.04601044 0.2130115 -0.19405855 -0.19872208 -0.24625708 -0.45115283 -0.42724517
-0.30983528 -0.08930927 0.09548626 0.15021871 -0.112375975 -0.04675411 0.15834393 -0.16294226
0.0188366 0.24073683 -0.06491541 0.16168462 0.332658 -0.09707235 -0.100232355 -0.087959364
-0.005282336 -0.067754015 0.04039759 -0.0753771 -0.10349311 -0.03767596 -0.15203483 -0.109477825
-0.051074333 -0.0803712 -0.10857998 -0.15173395 -0.38048252 -0.36842442 -0.3672999 -0.002432354
-0.17418589 -0.18165043 0.13797675 -0.06332254 -0.118683614 -0.07283596 -0.1824747 -0.18424392
-0.028051699 -0.06743995 -0.025666472 -0.04382026 -0.11043552 -0.10245601 -0.047355417 -0.16998364
-0.17469397 0.009500882 -0.008423801 -0.028823523 -0.04541041 0.030954584 0.11703866 -0.029668218
0.0841759 0.07592846 0.001637833 -0.01694645 -0.111880235 0.013916642 -0.07074752 -0.088924915
-0.08625024 -0.132248 -0.16305563 -0.020262074 -0.076951794 -0.1188188 -0.044707682 -0.08156123
0.0060580783 -0.11113101 -0.08813965 -0.055092227 -0.05073436 0.07431818 0.051846106 0.014801934
-0.025925156 -0.09900085 0.09407615 0.12771122 0.018051928 0.060178995 -0.039395127 -0.3656753
0.016293338 0.12472398 -0.20138712 0.13613975 0.16397537 -0.016731473 0.1514965 0.1046815
0.27247733 0.16081542 0.14731166 0.062110834 -0.32583708 -0.26656252 -0.2491954 -0.14430362
-0.25332674 0.19552512 0.37879372 0.2584418 0.13114317 -0.04273849 -0.038449932 -0.12793306
0.018958664 -0.029732727 -0.04588277 -0.046023816 0.00814172 -0.026649404 -0.056419753 -0.082256004
-0.059588302 -0.37446594 -0.012154874 -0.06710272 -0.44212088 -0.07422039 -0.03759507 -0.31610945
-0.079355486 -0.08925533 -0.0032938046 -0.114321925 -0.07082432 0.15539084 0.07973809 0.10531495
0.04584953 -0.007786798 0.039665423 -0.17451438 -0.1858849 -0.12979251 -0.11680097 -0.1027728
-0.08114987 -0.14400604 -0.06482443 0.041180905 -0.008947955 -0.1363977 -0.1841679 -0.016315745
-0.023626216 -0.003114422 -0.0877114 -0.04070481 0.0678049 -0.04220622 -0.012984999 0.0010529623
-0.05717941 -0.055875566 -0.041262254 -0.06404872 -0.029998844 0.028759275 0.0774755 0.19593583
0.37008303 0.030206729 0.04222414 0.12446005 -0.05443844 -0.02416886 -0.038585298 0.045671996
0.076147676 0.1144048 0.07650861 0.09544743 0.12571165 -0.07251885 0.051440503 0.07342612
-0.10434556 -0.030114401 0.009040062 0.004030507 -0.0064248852 0.020289235 -0.05374808 -0.03823479
-0.10629852 -0.084410705 -0.20488319 -0.2217416 -0.04032046 -0.08030117 -0.087626085 -0.10085279
-0.018039176 -0.014060383 -0.11015265 -0.08676964 0.017816622 -0.110342376 -0.0875187 0.040282458
-0.09209619 -0.15553841 -0.02092102 0.0059190895 0.19615671 0.18463154 -0.039795 0.09259312
0.15874451 -0.10136736 0.02974665 0.0069485847 0.06944072 0.031839523 -0.02442156 0.04271322
00000000: 01d4 523e f864 ad3d 3566 0c3d 749d 593d
00000010: 61d7 48bc f83e 91bd 6c72 da3d 6584 b53c
00000020: cb97 91bd 6293 37be 9c02 32be 8124 92bd
00000030: 8fe2 b9be fef1 a7be 115b d0be de0e 37be
00000040: ab2f 4fbe d07f 2ebe ac89 38be ce4e acbd
00000050: bbb9 293e 17a5 88bd fb13 59be f935 d13d
00000060: 2d55 8a3d 7175 3c3d b01f 5a3e 49b7 46be
00000070: cd7d 4bbe d12a 7cbe 81fd e6be e1bf dabe
00000080: bba2 9ebe c7e7 b6bd 4d8e c33d efd2 193e
00000090: 6025 e6bd 3d81 3fbd e924 223e 56da 26be
000000a0: 374f 9a3c b783 763e 5ff2 84bd a790 253e
000000b0: 2652 aa3e decd c6bd 9f46 cdbd 0a24 b4bd
000000c0: 7217 adbb 9ec2 8abd f177 253d 4f5f 9abd
000000d0: 32f4 d3bd 1c52 1abd 05af 1bbe e935 e0bd
000000e0: 5233 51bd a899 a4bd 2e5f debd 2560 1bbe
000000f0: 9bce c2be 20a2 bcbe bc0e bcbe 2168 1fbb
00000100: c95d 32be 9202 3abe c749 0d3e 3faf 81bd
00000110: 6510 f3bd 052b 95bd a6da 3abe 70aa 3cbe
00000120: adcc e5bc f51d 8abd 7e42 d2bc df7c 33bd
00000130: 052c e2bd 75d4 d1bd c1f7 41bd 3110 2ebe
00000140: fae2 32be 96a9 1b3c fb03 0abc 4f1f ecbc
00000150: 4400 3abd 7894 fd3c f7b1 ef3d c30a f3bc
00000160: 6a64 ac3d 6180 9b3d 8eac d63a 48d3 8abc
00000170: 7721 e5bd a102 643c 13e4 90bd 441e b6bd
00000180: f7a3 b0bd 056c 07be 0ef8 26be a6fc a5bc
00000190: e798 9dbd 4557 f3bd 671f 37bd 9309 a7bd
000001a0: d882 c63b a898 e3bd 9082 b4bd 63a8 61bd
000001b0: d5ce 4fbd 2134 983d 955c 543d d083 723c
000001c0: fe60 d4bc f5c0 cabd ffaa c03d bbc6 023e
000001d0: a3e1 933c 407e 763d c95c 21bd cb39 bbbe
000001e0: 9b79 853c 496f ff3d 6d38 4ebe 3868 0b3e
000001f0: 29e9 273e 7110 89bc e621 1b3e 4163 d63d
00000200: 2682 8b3e ccac 243e ded8 163e ee67 7e3d
00000210: 1ed4 a6be e27a 88be 142d 7fbe 54c4 13be
00000220: 0bb4 81be bd37 483e 40f1 c13e 7c52 843e
00000230: 654a 063e 8e0e 2fbd ad7d 1dbd e200 03be
00000240: 334f 9b3c 0c92 f3bc 92ef 3bbd 7883 3cbd
00000250: d964 053c da4f dabc 6618 67bd d675 a8bd
00000260: dd12 74bd 00ba bfbe 3d25 47bc 276d 89bd
00000270: ab5d e2be dc00 98bd 4afd 19bd 19d9 a1be
00000280: 2185 a2bd 80cb b6bd dfdc 57bb 9d21 eabd
00000290: 570c 91bd c71e 1f3e b94d a33d 5daf d73d
000002a0: b7cc 3b3d 6528 ffbb 3678 223d e6b3 32be
000002b0: 9c58 3ebe 54e8 04be 5935 efbd 8c7a d2bd
000002c0: e731 a6bd 5276 13be acc2 84bd 4fad 283d
000002d0: 729a 12bc d7ab 0bbe 8396 3cbe 99a8 85bc
000002e0: c48b c1bc 551b 4cbb 09a2 b3bd 16ba 26bd
000002f0: 4cdd 8a3d 6ee0 2cbd 09bf 54bc 8d03 8a3a
00000300: f534 6abd c7dd 64bd 9c02 29bd fa2b 83bd
00000310: 23c0 f5bc 9298 eb3c 7aab 9e3d 67a3 483e
00000320: 867b bd3e 1a74 f73c 38f3 2c3d e9e4 fe3d
00000330: d7fa 5ebd c6fd c5bc 9e0b 1ebd 8f12 3b3d
00000340: 50f3 9b3d 104d ea3d 8cb0 9c3d f179 c33d
00000350: 8eba 003e c384 94bd 47b3 523d 6f60 963d
00000360: 20b3 d5bd 7ab2 f6bc c51c 143c 5812 843b
00000370: d887 d2bb 9c35 a63c f226 5cbd 159c 1cbd
00000380: 0ab3 d9bd 85df acbd e6cc 51be 3b10 63be
00000390: 1127 25bd f174 a4bd 4e75 b3bd e88b cebd
000003a0: e5c6 93bc 855d 66bc b697 e1bd 48b4 b1bd
000003b0: 2af4 913c 2ffb e1bd 013d b3bd 38ff 243d
000003c0: ed9c bcbd 7645 1fbe 8f62 abbc ecf4 c13b
000003d0: 4edd 483e 0d10 3d3e 1500 23bd 76a1 bd3d
000003e0: ec8d 223e b199 cfbd 3faf f33c f4b0 e33b
000003f0: f036 8e3d 296a 023d b90f c8bc 0ff4 2e3d

seq32_32.0.conv1.bias f4 [16]
0.018778862 0.030365853 -0.022898482 0.01887221 -0.016515594 0.033692468 0.02898798 -0.015862769
-0.027309148 -0.00012716616 0.03019647 0.013719173 0.03510842 0.018355994 0.032851897 -0.020616084
00000000: 21d6 993c cfc1 f83c 9995 bbbc e599 9a3c
00000010: b64b 87bc 1d01 0a3d 3378 ed3c a3f2 81bc
00000020: 6fb7 dfbc e857 05b9 965e f73c 62c6 603c
00000030: d9cd 0f3d 4f5f 963c b68f 063d 10e3 a8bc

seq32_32.0.bn1.weight f4 [16]
0.84269 0.71340674 1.1620727 1.3081228 0.9236955 0.42905408 1.0313141 0.75016624
0.5160552 0.8737261 1.0396699 0.704409 0.9754139 0.8647517 0.7387444 0.98042095
00000000: 88ba 573f d3a1 363f ccbe 943f 9170 a73f
00000010: 4f77 6c3f faac db3e 1a02 843f e50a 403f
00000020: 321c 043f 84ac 5f3f e713 853f 2654 343f
00000030: bab4 793f 5e60 5d3f 5a1e 3d3f defc 7a3f

seq32_32.0.bn1.bias f4 [16]
0.1430733 -0.37797642 -0.6590106 0.55362 0.48411247 -0.11816409 -0.6554078 -0.041145355
-0.3946067 -0.30081224 1.0021657 0.0886875 0.5159699 0.7196574 -0.17392804 -0.4108858
00000000: cf81 123e 2086 c1be ebb4 28bf 0aba 0d3f
00000010: 97dd f73e 0400 f2bd cec8 27bf 0888 28bd
00000020: e409 cabe 1004 9abe f746 803f cba1 b53d
00000030: 9a16 043f 783b 383f 311a 32be a05f d2be

seq32_32.0.bn1.running_mean f4 [16]
-3.0728173 -3.005967 2.6215148 -1.0850573 -4.6504383 -2.2742052 4.253828 -5.7412567
0.7657298 -0.15922864 -0.9079565 -3.4342575 -2.5281518 -0.51455694 -0.07364677 -0.67977726
00000000: 0aa9 44c0 c361 40c0 e6c6 2740 28e3 8abf
00000010: 64d0 94c0 948c 11c0 5c1f 8840 60b8 b7c0
00000020: de06 443f d50c 23be d66f 68bf e0ca 5bc0
00000030: 3dcd 21c0 01ba 03bf 1ed4 96bd e205 2ebf

seq32_32.0.bn1.running_var f4 [16]
6.9957013 2.7860024 8.518071 9.480817 7.33958 3.2643707 4.9927344 3.7602074
3.3386612 5.002541 3.8860686 6.224699 6.616075 7.78677 4.1862216 2.2365398
00000000: c9dc df40 dd4d 3240 054a 0841 6db1 1741
00000010: d7dd ea40 73eb 5040 7bc4 9f40 3da7 7040
00000020: a0ac 5540 d114 a040 59b5 7840 bc30 c740
00000030: e3b6 d340 382d f940 87f5 8540 7823 0f40

seq32_32.0.conv2.weight f4 [16, 16, 3, 3]
0.064280845 0.0152734965 -0.07693981 -0.047968537 -0.061258256 0.042853717 -0.031055091 0.07294881
0.065115996 -0.0754669 -0.008815069 0.058476057 0.011102339 -0.039631292 0.08042589 -0.113178425
-0.17022036 0.053805757 0.12639962 -0.058169108 0.017446615 0.2420828 0.13974959 0.10114273
0.06308293 0.049778767 -0.08479384 -0.26232612 0.05159578 0.005537635 0.2585062 -0.06789152
-0.22554974 0.37801406 -0.13149793 -0.3109197 -0.10245085 -0.062625825 -0.07413878 -0.17477432
-0.36849964 0.2652159 -0.21952201 -0.37840575 0.6351226 -0.27224973 -0.21977048 -0.23240343
-0.107444845 -0.20779963 -0.20947497 -0.017888267 -0.0010694053 -0.022806253 -0.16817966 -0.13205709
-0.1298395 -0.16243966 -0.34886613 -0.17902245 -0.3677726 -0.42738786 -0.32626542 0.28930828
0.090023324 -0.15369847 0.15448427 0.02958058 -0.30228755 0.17930399 0.019333791 -0.2802529
0.20457281 -0.080436036 0.05000118 -0.06822092 -0.3663368 -0.17110796 0.10663544 -0.25520465
-0.11389685 -0.1352783 -0.4626658 -0.2935524 0.017079791 -0.04261084 -0.17485513 0.17537855
0.44049066 0.25830287 0.09254948 0.041991886 -0.2752034 0.40137762 -0.23702665 -0.27957654
0.56410056 -0.38131735 -0.077080674 -0.15889943 0.021893252 0.12020446 -0.33021566 -0.07760596
0.29534844 -0.23021206 -0.02828194 0.37008953 0.2087585 0.21884795 0.111648545 -0.3534591
-0.017707027 0.11956507 -0.40733984 0.10298643 -0.14807478 0.06571971 -0.035427548 0.12416932
0.13981779 -0.13914505 0.16199893 -0.032858767 -0.10858911 -0.16583705 -0.033525065 -0.04937449
-0.07479404 -0.07631126 -0.14403291 0.03849831 0.013905008 -0.09860821 0.08530451 0.17920265
0.12673903 0.06723683 0.054432727 0.030632641 -0.01332623 0.13666251 0.13911028 0.14917131
-0.054567624 -0.08477289 -0.15533549 0.06400707 -0.10077573 -0.31267977 -0.041927382 -0.16773622
-0.19602779 -0.10780529 -0.076999865 -0.076547876 -0.10335505 -0.15464647 -0.21283717 -0.13914904
0.053394414 0.05277787 -0.16830799 -0.2539086 -0.19160198 -0.10756109 -0.092689075 -0.052357912
0.05567185 -0.046241894 -0.103085086 0.29750538 -0.103531405 -0.21820597 0.21611218 0.69885296
-0.45068806 -0.14478068 -0.06161411 -0.43146193 0.0933269 0.003042936 0.61955804 0.035003338
-0.5177981 -0.009924082 -0.30723023 -0.34954047 -0.12030654 -0.12716532 -0.07539715 -0.058710836
-0.17373219 -0.05240546 -0.120758004 -0.11368095 -0.07755755 -0.07930501 -0.2921868 -0.295196
0.15465742 -0.31164566 -0.29800642 0.21609749 -0.19391029 -0.24480703 0.06324206 0.2815039
0.025565412 -0.21340278 0.32558808 0.011016089 -0.230888 0.24704511 0.12606023 -0.10340637
0.15365513 -0.13785177 -0.17700155 0.19113342 -0.2048486 -0.23690204 0.37334615 0.09291607
0.05141142 -0.056761306 -0.14747962 -0.29363558 -0.20956555 -0.04620264 -0.059880115 -0.060017433
-0.107755564 -0.10435437 0.06376164 -0.4613039 0.10800087 0.34295943 0.30578408 -0.75666887
-0.15802558 0.2021838 -0.13623145 -0.17390248 -0.019466192 0.3692356 -0.0248225 -0.11385208
0.16745886 -0.03129171 -0.10726157 -0.032730747 -0.15371035 -0.05994729 -0.23160195 0.14706643
00000000: ada5 833d b03d 7a3c 9e92 9dbd a87a 44bd
00000010: f0e9 7abd 6187 2f3d 3f67 febc 3066 953d
00000020: 895b 853d 648e 9abd 146d 10bc 9784 6f3d
00000030: 96e6 353c 6c54 22bd 54b6 a43d 17ca e7bd
00000040: 3f4e 2ebe 6d63 5c3d e76e 013e bb42 6ebd
00000050: 34ec 8e3c 8ee4 773e 841a 0f3e eb23 cf3d
00000060: a031 813d d2e4 4b3d 65a8 adbd 9c4f 86be
00000070: 1956 533d 0d75 b53b ed5a 843e b60a 8bbd
00000080: 83f6 66be 0f8b c13e 65a7 06be de30 9fbe
00000090: c0d1 d1bd f841 80bd 13d6 97bd 0af8 32be
000000a0: fcab bcbe 61ca 873e 61ca 60be 66be c1be
000000b0: 6597 223f 5164 8bbe 830b 61be 2afb 6dbe
000000c0: 0b0c dcbd 6dc9 54be 9b80 56be 6a8a 92bc
000000d0: 4a2b 8cba 2ed4 babc 4a37 2cbe f939 07be
000000e0: a5f4 04be 9556 26be 959e b2be a951 37be
000000f0: b14c bcbe 95d2 dabe 430c a7be 3720 943e
00000100: 265e b83d 2263 1dbe 2031 1e3e f952 f23c
00000110: 6fc5 9abe 779b 373e e661 9e3c 4f7d 8fbe
00000120: 897b 513e a6bb a4bd 0ace 4c3d 69b7 8bbd
00000130: 7f90 bbbe ed36 2fbe ae63 da3d 2faa 82be
00000140: c042 e9bd 6586 0abe 88e2 ecbe 804c 96be
00000150: ebea 8b3c b488 2ebd 390d 33be 6f96 333e
00000160: fe87 e13e 4640 843e 958a bd3d afff 2b3d
00000170: 76e7 8cbe 5e81 cd3e 1db7 72be a824 8fbe
00000180: e568 103f 073c c3be 79dc 9dbd 88b6 22be
00000190: 7a59 b33c c22d f63d 0712 a9be e0ef 9ebd
000001a0: e937 973e b6bc 6bbe 87af e7bc 607c bd3e
000001b0: cac4 553e ad19 603e fea7 e43d 97f8 b4be
000001c0: 540e 91bc 88de f43d d98e d0be 8dea d23d
000001d0: eaa0 17be 0e98 863d 7a1c 11bd 7c4c fe3d
000001e0: 652c 0f3e 0a7c 0ebe 0ce3 253e ea96 06bd
000001f0: f863 debd 30d1 29be 9451 09bd e83c 4abd
00000200: 9e2d 99bd 1449 9cbd 5d7d 13be 67b0 1d3d
00000210: d5d1 633c 1af3 c9bd 22b4 ae3d e680 373e
00000220: e0c7 013e 77b3 893d daf4 5e3d 4ef1 fa3c
00000230: 4356 5abc 42f1 0b3e ed72 0e3e 5dc0 183e
00000240: 4d82 5fbd 699d adbd 4410 1fbe 2416 833d
00000250: 8263 cebd 9017 a0be 0cbc 2bbd 0bc3 2bbe
00000260: 82bb 48be 05c9 dcbd 1bb2 9dbd 22c5 9cbd
00000270: d0ab d3bd a55b 1ebe fdf1 59be 167d 0ebe
00000280: 1ab4 5a3d 9c2d 583d ee58 2cbe 4f00 82be
00000290: 4f33 44be fd48 dcbd c5d3 bdbd 4075 56bd
000002a0: 2a08 643d 2468 3dbd 461e d3bd a052 983e
000002b0: 4608 d4bd 6371 5fbe 834c 5d3e 07e8 323f
000002c0: 96c0 e6be 6341 14be 145f 7cbd 94e8 dcbe
000002d0: 2c22 bf3d ff6b 473b 5b9b 1e3f a95f 0f3d
000002e0: 6b8e 04bf 9e98 22bc 484d 9dbe f8f6 b2be
000002f0: 4663 f6bd a037 02be d269 9abd c67a 70bd
00000300: dae6 31be 1ca7 56bd f94f f7bd 8fd1 e8bd
00000310: 7ed6 9ebd aa6a a2bd 8299 95be ee23 97be
00000320: 845e 1e3e 0590 9fbe 4c94 98be a948 5d3e
00000330: 6b90 46be b2ae 7abe 0e85 813d 4721 903e
00000340: 8e6e d13c 4286 5abe 7bb3 a63e d37c 343c
00000350: e76d 6cbe 65f9 7c3e ef15 013e b8c6 d3bd
00000360: c557 1d3e 0429 0dbe e53f 35be 7bb8 433e
00000370: d5c3 51be 7396 72be 3a27 bf3e c84a be3d
00000380: c894 523d 8b7e 68bd e604 17be 6757 96be
00000390: 5a98 56be fb3e 3dbd da44 75bd d7d4 75bd
000003a0: f3ae dcbd beb7 d5bd 7695 823d 0630 ecbe
000003b0: 8f2f dd3d 6198 af3e bb8f 9c3e 0db5 41bf
000003c0: 75d1 21be 4509 4f3e 4280 0bbe 7e13 32be
000003d0: 9077 9fbc 730c bd3e 8e58 cbbc 482b e9bd
000003e0: 567a 2b3e bc2b 00bd f4ab dbbd ad10 06bd
000003f0: 3f66 1dbe 4a8b 75bd 1029 6dbe 9598 163e

seq32_32.0.conv2.bias f4 [16]
-0.03353229 -0.021626674 -0.012985528 0.0347707 -0.008868397 0.011816308 -0.0054346556 -0.028631635
0.0036496366 -0.012021386 -0.032911018 0.001094802 0.0135265635 0.0010956953 0.037081596 0.019689241
00000000: 2859 09bd 6c2a b1bc 41c1 54bc b96b 0e3d
00000010: c14c 11bc 3099 413c 3215 b2bb e48c eabc
00000020: be2e 6f3b 59f5 44bc b4cd 06bd 767f 8f3a
00000030: 859e 5d3c 6f9d 8f3a dfe2 173d 554b a13c

seq32_32.0.bn2.weight f4 [16]
1.0236017 0.97444785 1.25287 0.66660595 0.6328327 0.98385304 0.99379337 0.7876568
0.27841848 0.689766 1.1185696 1.0282807 0.6888342 0.976672 0.9636972 1.8110595
00000000: 6105 833f 6a75 793f 0b5e a03f b0a6 2a3f
00000010: 5301 223f cbdd 7b3f 3e69 7e3f e0a3 493f
00000020: de8c 8e3e 8194 303f 4a2d 8f3f b49e 833f
00000030: 7057 303f 2d07 7a3f dcb4 763f ccd0 e73f

seq32_32.0.bn2.bias f4 [16]
0.014779019 -0.040429376 0.28548974 -0.082286626 0.26042908 0.50708306 0.28516164 -0.44179514
-0.09091686 0.4392117 -0.2372838 0.08577319 -0.0663516 0.27896705 0.21738522 -0.45797724
00000000: b323 723c 4699 25bd b62b 923e e485 a8bd
00000010: f656 853e 32d0 013f b500 923e f932 e2be
00000020: 9e32 babd 5be0 e03e 86fa 72be dba9 af3d
00000030: 59e3 87bd c5d4 8e3e 3b9a 5e3e fe7b eabe

seq32_32.0.bn2.running_mean f4 [16]
-1.2478458 -1.9992579 -1.1714547 -1.4616894 -0.6494312 -2.1842465 0.63748384 2.3405912
1.0148478 -1.0036016 0.7850858 -0.474093 -2.4417276 0.19575693 0.36337653 -1.1852795
00000000: 69b9 9fbf afe7 ffbf 3af2 95bf a318 bbbf
00000010: 2041 26bf b2ca 0bc0 2432 233f 3fcc 1540
00000020: 88e6 813f 0476 80bf 62fb 483f 51bc f2be
00000030: 4445 1cc0 8174 483e 7d0c ba3e 3db7 97bf

seq32_32.0.bn2.running_var f4 [16]
4.338325 4.573959 6.971407 5.5222187 3.2299218 3.325306 6.0993314 1.8383386
1.0522554 3.27239 3.6241503 3.9218137 2.5794601 3.5566986 3.4589949 6.537972
00000000: 8fd3 8a40 df5d 9240 c415 df40 04b6 b040
00000010: 0ab7 4e40 d0d1 5440 b92d c340 ae4e eb3f
00000020: 4eb0 863f d66e 5140 14f2 6740 fffe 7a40
00000030: e015 2540 f3a0 6340 2c60 5d40 1137 d140

seq32_32.1.conv1.weight f4 [16, 16, 3, 3]
-0.00062094413 -0.12597337 -0.1259885 0.05920809 -0.14065917 -0.16040601 0.04083297 0.03320759
-0.01152936 -0.02126164 0.1229652 -0.27245104 -0.087781996 0.18285501 -0.17995311 0.07218038
0.07139417 -0.059791133 0.09204389 -0.12370105 0.24916166 0.01467767 0.0452218 -0.0032634023
-0.04344412 0.015595794 -0.058913276 0.061207432 -0.048526537 -0.11097278 0.09135749 0.11252493
-0.024890209 0.19332437 0.10312251 0.24444836 0.004678436 0.026115604 -0.08266891 0.016719917
0.083237335 -0.03613137 0.08316946 0.13547662 0.05741766 -0.023552654 -0.060804784 0.03441876
0.030627418 0.16044033 0.007600024 0.008011869 0.15160158 0.2073876 0.1343114 0.1280886
0.013694767 0.053630628 -0.06222153 0.04781142 0.18121822 0.13161764 0.17029367 0.02806453
0.024452489 0.17439635 -0.037793823 -0.11196798 0.0037789159 -0.097204804 -0.08106276 -0.051261634
-0.10238556 -0.07639849 -0.05952945 -0.13419801 -0.079769336 -0.07221956 -0.14528787 -0.03925731
-0.0012343342 0.046774987 0.06570061 0.09966571 0.09317929 0.02892045 0.05378061 0.0033054661
0.03702311 0.06652997 -0.015318318 -0.038094472 0.11374459 -0.028336363 -0.08015145 -0.061596233
0.11557765 0.06883803 0.03353119 0.11135084 -0.09116136 0.22430255 -0.14449134 -0.35457063
0.006370919 -0.010662887 -0.07846523 0.07140006 -0.033076845 0.039390083 -0.012101958 0.0690873
0.0599254 0.015195119 0.057868794 0.15407437 0.10585276 -0.09738429 0.16241986 -0.055917773
-0.16285604 0.3830992 -0.06341362 -0.055753388 0.07153531 -0.15482247 0.042255875 -0.007266039
-0.0002455771 0.056245215 -0.0014596091 0.12757912 0.18995044 -0.037831064 0.054540593 -0.3449355
-0.082020715 -0.6008102 -0.5183213 0.0044856616 -0.61714643 -0.27127722 -0.32745394 -0.19568467
-0.018531183 0.33796513 0.08078151 -0.36725655 -0.06376117 0.2489313 -0.069573455 -0.055255115
0.059042707 -0.13219555 -0.38752675 -0.24655774 0.15694441 0.15677194 -0.24867211 -0.18816258
-0.086871885 0.064968 -0.24379301 0.3270294 0.57070124 -0.45164895 -0.4891252 0.14113742
0.00958322 -0.13660765 -0.19930574 -0.017995413 0.04526695 0.20267484 -0.2318674 -0.18789941
0.08894549 0.141608 0.098341025 -0.07291559 0.06944366 -0.087109916 0.20447 0.11005898
-0.087110266 -0.16175982 0.1275139 0.07786625 -0.26570022 -0.14536636 0.22347948 0.33732355
-0.14991929 -0.4498658 0.023422418 0.07139745 -0.04426612 -0.21677366 -0.0835243 -0.13172647
-0.40657353 -0.0861658 0.25127715 -0.050110992 -0.16412663 -0.3702237 -0.025163027 -0.08347338
-0.11510991 -0.05837365 -0.01327957 -0.032255236 -0.02663591 -0.17782736 -0.17728783 -0.023571718
-0.11052024 -0.015801625 0.0037129547 -0.055122886 -0.13108227 -0.084572524 -0.105532594 -0.1327418
-0.058768462 -0.09782492 0.10670805 0.22153245 -0.002453118 0.0010048321 0.14926727 0.08845313
0.04652669 0.056207083 0.08468091 0.20301995 0.25513935 -0.14724135 -0.023951259 0.31575927
-0.22599602 -0.19640964 0.01721078 0.10006288 0.08321681 -0.14255086 -0.20211066 0.09193496
0.16235822 -0.09523853 -0.19807273 0.1327632 0.121535234 -0.05672796 -0.14173535 0.15645333
00000000: dbc6 22ba 2aff 00be 2103 01be 2f84 723d
00000010: f508 10be 7941 24be 7940 273d af04 083d
00000020: a4e5 3cbc e42c aebc 2ed5 fb3d b47e 8bbe
00000030: 0cc7 b3bd 583e 3b3e a145 38be 4fd3 933d
00000040: 1b37 923d 8ce7 74bd 8281 bc3d fa56 fdbd
00000050: 3c24 7f3e 9c7a 703c 7f3a 393d cede 55bb
00000060: 76f2 31bd 8085 7f3c 0c4f 71bd a5b4 7a3d
00000070: c3c3 46bd b245 e3bd a319 bb3d 7873 e63d
00000080: 8de6 cbbc d3f6 453e e531 d33d ac50 7a3e
00000090: 914d 993b 64f0 d53c 514e a9bd 35f8 883c
000000a0: 5678 aa3d 7dfe 13bd c054 aa3d 62ba 0a3e
000000b0: c82e 6b3d 7ff1 c0bc 700e 79bd b0fa 0c3d
000000c0: 5ae6 fa3c 784a 243e 9f09 f93b 3744 033c
000000d0: 723d 1b3e 6a5d 543e ed88 093e a829 033e
000000e0: 0460 603c caab 5b3d 01dc 7ebd e8d5 433d
000000f0: 4591 393e c6c6 063e 7761 2e3e 96e7 e53c
00000100: 9650 c83c f594 323e b2cd 1abd 784f e5bd
00000110: b0a7 773b 5013 c7bd 3b04 a6bd b8f7 51bd
00000120: 85af d1bd d076 9cbd 27d5 73bd 346b 09be
00000130: 1b5e a3bd d9e7 93bd 58c6 14be 46cc 20bd
00000140: 62c9 a1ba 2197 3f3d 0b8e 863d 891d cc3d
00000150: c9d4 be3d 94ea ec3c 0f49 5c3d 85a0 583b
00000160: 8ba5 173d dd40 883d aff9 7abc f308 1cbd
00000170: ecf2 e83d a921 e8bc 7226 a4bd 554c 7cbd
00000180: fab3 ec3d f4fa 8c3d 0058 093d e90b e43d
00000190: cfb2 babd 91af 653e 8af5 13be 488a b5be
000001a0: 24c3 d03b 64b3 2ebc 61b2 a0bd 323a 923d
000001b0: 967b 07bd 7f57 213d 4a47 46bc a47d 8d3d
000001c0: 5674 753d f3f4 783c d407 6d3d acc5 1d3e
000001d0: 55c9 d83d 6a71 c7bd 6451 263e 090a 65bd
000001e0: bcc3 26be 9425 c43e 00df 81bd aa5d 64bd
000001f0: 1b81 923d c889 1ebe 7f14 2d3d f417 eebb
00000200: cdc0 80b9 6261 663d 5b50 bfba 1aa4 023e
00000210: 5e82 423e bff4 1abd f565 5f3d 639b b0be
00000220: 7afa a7bd b3ce 19bf b4b0 04bf 75fc 923b
00000230: 4ffd 1dbf d9e4 8abe 0ba8 a7be 9061 48be
00000240: b5ce 97bc c409 ad3e c770 a53d 0d09 bcbe
00000250: 3795 82bd d9e7 7e3e 877c 8ebd 3053 62bd
00000260: c4d6 713d 455e 07be e869 c6be a279 7cbe
00000270: 09b6 203e d388 203e e7a3 7ebe b1ad 40be
00000280: e3e9 b1bd f10d 853d e0a4 79be 6670 a73e
00000290: 7a19 123f 883e e7be 9e6e fabe 5486 103e
000002a0: f002 1d3c e0e2 0bbe ce16 4cbe 1e6b 93bc
000002b0: d669 393d fe89 4f3e a66e 6dbe b468 40be
000002c0: 0e29 b63d b001 113e 0567 c93d c554 95bd
000002d0: 7a38 8e3d af66 b2bd 9560 513e 9a66 e13d
000002e0: de66 b2bd 5ea4 25be 0193 023e 5778 9f3d
000002f0: dc09 88be ebda 14be ced7 643e acb5 ac3e
00000300: 7184 19be cf54 e6be 5fe0 bf3c d438 923d
00000310: 6450 35bd eaf9 5dbe ca0e abbd 4ee3 06be
00000320: 682a d0be b277 b0bd 66a7 803e 2f41 4dbd
00000330: d010 28be f68d bdbe b122 cebc 17f4 aabd
00000340: bfbe ebbd 3519 6fbd 8e92 59bc 111e 04bd
00000350: 8d33 dabc 6018 36be f18a 35be 7a19 c1bc
00000360: 7058 e2bd 6972 81bc 0b55 733b 89c8 61bd
00000370: 6e3a 06be 5c34 adbd 7921 d8bd 77ed 07be
00000380: 33b7 70bd 6f58 c8bd c089 da3d 67d9 623e
00000390: 7ec4 20bb 92b4 833a 85d9 183e ea26 b53d
000003a0: c592 3e3d 6639 663d 2f6d ad3d 76e4 4f3e
000003b0: a0a1 823e 70c6 16be 6e35 c4bc 33ab a13e
000003c0: 806b 67be 9c1f 49be 9ffd 8c3c c4ed cc3d
000003d0: 936d aa3d daf8 11be 19f6 4ebe 6548 bc3d
000003e0: 3c41 263e 6b0c c3bd 94d3 4abe 14f3 073e
000003f0: 77e7 f83d 945b 68bd 1223 11be 4d35 203e

seq32_32.1.conv1.bias f4 [16]
-0.012322312 -0.007136153 0.021621764 -0.0002929673 -0.020047238 -0.013113176 -0.013882001 0.034134347
-0.033506766 0.026406776 0.023900928 0.012040989 0.022747636 0.006525529 -0.021088677 -0.031493876
00000000: 86e3 49bc 64d6 e9bb 2020 b13c 6899 99b9
00000010: 1b3a a4bc a6d8 56bc 5571 63bc 75d0 0b3d
00000020: 643e 09bd 0653 d83c e1cb c33c 9147 453c
00000030: 4059 ba3c 1bd4 d53b 29c2 acbc b9ff 00bd

seq32_32.1.bn1.weight f4 [16]
0.6280619 0.86576545 0.85012317 0.86863154 1.1763095 1.0157388 1.3398355 0.79985523
0.89787495 1.045628 0.65437263 1.2028025 0.9276903 1.1937913 0.9952012 0.8305169
00000000: aac8 203f cea2 5d3f aca1 593f a35e 5e3f
00000010: 4f91 963f bb03 823f bb7f ab3f 50c3 4c3f
00000020: 22db 653f 23d7 853f f784 273f 6ff5 993f
00000030: 1d7d 6d3f 27ce 983f 81c5 7e3f c19c 543f

seq32_32.1.bn1.bias f4 [16]
0.039233897 -0.24534646 -0.10799409 -0.34669805 -0.1098479 0.105281584 -0.11452657 -0.5111825
-0.19660795 -0.3581394 -0.0662533 -0.36834186 -0.44396302 -0.47818753 0.2706366 -0.52621806
00000000: b9b3 203d 1a3c 7bbe 012c ddbd 6882 b1be
00000010: f0f7 e0bd df9d d73d e88c eabd dbdc 02bf
00000020: 9853 49be 0c5e b7be cfaf 87bd 4e97 bcbe
00000030: 1f4f e3be ffd4 f4be e190 8a3e 3ab6 06bf

seq32_32.1.bn1.running_mean f4 [16]
-2.2625494 -4.2481875 -5.0735507 -3.4677238 -2.2243164 -6.0919213 -2.475098 -2.6768494
-1.2770644 -3.8150554 -1.6278119 -7.050462 0.18271269 -5.495311 -4.3686585 -4.0074677
00000000: 9ccd 10c0 27f1 87c0 875a a2c0 30ef 5dc0
00000010: 335b 0ec0 05f1 c2c0 0168 1ec0 8051 2bc0
00000020: d976 a3bf de29 74c0 245c d0bf 629d e1c0
00000030: 0919 3b3e 96d9 afc0 0dcc 8bc0 2d3d 80c0

seq32_32.1.bn1.running_var f4 [16]
9.426648 18.799328 12.405587 14.684946 55.09564 15.59506 69.22189 14.247745
13.115012 18.295477 7.4762216 23.39118 11.035395 19.945387 13.202306 9.870083
00000000: 8dd3 1641 0665 9641 497d 4641 8af5 6a41
00000010: ef61 5c42 5e85 7941 9c71 8a42 c3f6 6341
00000020: 17d7 5141 235d 9241 353d ef40 2321 bb41
00000030: fa90 3041 2790 9f41 a53c 5341 dceb 1d41

seq32_32.1.conv2.weight f4 [16, 16, 3, 3]
-0.10542847 -0.121150866 -0.19349027 0.07276919 0.09960075 -0.038660202 0.14725 0.18896677
0.25760573 -0.027069872 0.056686882 0.16754517 0.027623717 0.2109056 0.06984342 0.22265656
0.22985381 -0.08486496 -0.15027757 -0.079408094 -0.12988389 0.013091716 -0.012471507 -0.11880986
0.075384244 0.10403896 -0.07035171 0.037482172 -0.025794506 0.019727899 0.06401288 -0.036509067
0.07181338 0.01699185 0.13033094 0.1449576 -0.2521881 -0.0072990768 0.10715793 -0.17544046
0.021641834 0.35663995 -0.20766667 0.020851713 0.32820168 -0.13818108 -0.013825674 -0.100838386
0.1465578 0.06959429 -0.1069913 0.12606524 0.034997582 -0.019382197 -0.04640966 -0.115948394
-0.018840084 0.15760806 -0.02148338 0.16777402 0.31264433 0.22089292 0.48928744 0.17344518
0.0017733189 0.09423417 0.00823279 0.023632657 -0.07166706 0.037661374 -0.10078159 -0.02801129
0.12111739 -0.03749538 0.07652579 -0.06318209 -0.07854595 -0.017564237 -0.006088164 0.026190175
-0.08592384 -0.19169521 -0.0023052036 0.15881594 -0.17428584 0.18204588 0.35150903 -0.057960898
0.15623283 0.28931677 -0.0869307 0.07971262 0.090493634 -0.18542808 -0.2078178 -0.13418064
-0.10696295 -0.32462317 -0.36802375 -0.016394394 -0.12959537 -0.1436172 0.07957486 -0.006217853
-0.03663916 0.0050925324 0.152392 0.13629818 -0.14048731 -0.0876093 -0.08640079 -0.11070371
-0.09281313 -0.1782015 -0.013143498 -0.16052301 -0.07645946 -0.086952694 -0.18610914 -0.08881471
-0.03719969 0.20074396 0.18366566 0.12953061 0.24085897 0.12991753 0.049948357 -0.077431
-0.005934282 -0.1227933 -0.10157681 -0.059643943 -0.09580468 0.097183205 0.025579078 -0.061866388
-0.08869138 -0.043796796 -0.09554747 -0.14476883 -0.060230423 -0.19207333 -0.26812926 -0.18641663
0.06558422 0.040255442 -0.07455867 0.084379494 -0.05045411 0.08639266 0.08580658 -0.1267479
0.034725096 0.32970193 0.11828592 0.099745594 0.2804098 0.24559206 0.08429994 0.042863358
0.2979578 0.062102888 0.11617678 -0.012783326 -0.044658 0.1696225 0.16744089 -0.019531563
0.03835793 0.18970384 0.13147564 -0.09040276 -0.19424713 -0.10162693 -0.036951948 0.07085697
0.038127623 0.013478492 0.033640243 0.081794456 -0.034680746 0.30422324 0.23625536 0.035790753
0.3639339 0.40390897 0.0041933213 0.1419808 0.25795382 -0.21880369 -0.36509594 -0.3554434
0.17488915 -0.04065562 -0.26861015 0.05695344 0.107643984 -0.049927045 0.23519209 0.15034701
-0.16832389 -0.004374362 0.14943795 -0.14020187 -0.1696286 0.089973375 -0.14132553 -0.10418622
-0.028968494 0.06648538 -0.25348446 0.004550613 -0.063510835 -0.05546962 -0.17085245 -0.060971633
-0.2513794 -0.22637825 -0.06712108 -0.43735126 -0.29079378 -0.1274096 -0.3987262 -0.23610188
-0.18831165 -0.16547096 -0.021998653 0.35087803 -0.01620368 0.15497358 0.45882997 -0.20240122
0.15240161 0.16641696 0.06748977 0.15425289 0.29127234 -0.011722786 0.14245121 0.23893821
-0.0705251 0.0038526761 0.1404397 -0.026039585 0.22613026 0.20782948 -0.13721262 -0.02151378
0.27195346 -0.29070595 -0.049834166 0.12220227 0.18462873 0.2108271 0.23902704 0.06711851
00000000: e2ea d7bd f21d f8bd 5022 46be 0308 953d
00000010: 7afb cb3d 295a 1ebd b4c8 163e 8180 413e
00000020: e6e4 833e a3c1 ddbc 8130 683d f690 2b3e
00000030: 224b e23c a3f7 573e 110a 8f3d 1500 643e
00000040: cc5e 6b3e aecd adbd 5de2 19be b6a0 a2bd
00000050: 4800 05be a37e 563c 4b55 4cbc 9552 f3bd
00000060: 0e63 9a3d 6112 d53d 8f14 90bd e886 193d
00000070: 004f d3bc 679c a13c 2f19 833d 888a 15bd
00000080: e512 933d 7e32 8b3c 7975 053e c46f 143e
00000090: cc1e 81be 182d efbb 9e75 db3d aaa6 33be
000000a0: 374a b13c 8399 b63e 92a6 54be 36d1 aa3c
000000b0: 0d0a a83e 577f 0dbe 1485 62bc 5b84 cebd
000000c0: 3f13 163e 7387 8e3d 411e dbbd 3f17 013e
000000d0: a059 0f3d 6ac7 9ebc 0e18 3ebd 5a76 edbd
000000e0: 8556 9abc 0264 213e eafd afbc f4cc 2b3e
000000f0: eb12 a03e c131 623e e283 fa3e 9d9b 313e
00000100: b56e e83a d8fd c03d d3e2 063c 4699 c13c
00000110: 2ec6 92bd d042 1a3d 9466 cebd ef77 e5bc
00000120: 650c f83d c194 19bd 8eb9 9c3d 9d65 81bd
00000130: b3dc a0bd e0e2 8fbc 397f c7bb c78c d63c
00000140: d7f8 afbd c04b 44be e612 17bb a5a0 223e
00000150: fd77 32be 3c6a 3a3e fef8 b33e 6868 6dbd
00000160: 80fb 1f3e 5421 943e b908 b2bd 5f40 a33d
00000170: ba54 b93d dce0 3dbe 30ce 54be a666 09be
00000180: 640f dbbd 0235 a6be 9c6d bcbe 894d 86bc
00000190: a6b4 04be 6310 13be 25f8 a23d 22bf cbbb
000001a0: f212 16bd 42df a63b a60c 1c3e c091 0b3e
000001b0: e8db 0fbe 816c b3bd e6f2 b0bd a0b8 e2bd
000001c0: cf14 bebd 747a 36be d457 57bc 2560 24be
000001d0: c796 9cbd 4114 b2bd 6593 3ebe 7de4 b5bd
000001e0: b45e 18bd d38f 4d3e da12 3c3e aca3 043e
000001f0: bca3 763e 1a09 053e a696 4c3d 2594 9ebd
00000200: 5e74 c2bb 0e7b fbbd 8107 d0bd 354d 74bd
00000210: 3e35 c4bd fd07 c73d 378b d13c 9c67 7dbd
00000220: d4a3 b5bd 4564 33bd 64ae c3bd 483e 14be
00000230: 2db4 76bd dfae 44be 3d48 89be 00e4 3ebe
00000240: 0551 863d e4e2 243d 37b2 98bd 28cf ac3d
00000250: f8a8 4ebd a3ee b03d 5cbb af3d 34ca 01be
00000260: e73b 0e3d b1ce a83e e33f f23d 6b47 cc3d
00000270: e091 8f3e 7c7c 7b3e 72a5 ac3d 7d91 2f3d
00000280: ed8d 983e 995f 7e3d 17ee ed3d 2871 51bc
00000290: 4feb 36bd 85b1 2d3e a075 2b3e a800 a0bc
000002a0: 341d 1d3d b941 423e 8da1 063e 1525 b9bd
000002b0: b8e8 46be c821 d0bd ed5a 17bd 761d 913d
000002c0: b62b 1c3d e5d4 5c3c 5aca 093d da83 a73d
000002d0: 660d 0ebd 26c3 9b3e edec 713e 5399 123d
000002e0: 8b55 ba3e 28cd ce3e 2168 893b 6a63 113e
000002f0: 8612 843e 130e 60be dbed babe adfc b5be
00000300: 2416 333e 8286 26bd 4587 89be 0348 693d
00000310: 7374 dc3d 4d80 4cbd 32d6 703e 91f4 193e
00000320: 195d 2cbe cf56 8fbb 4306 193e 1491 0fbe
00000330: 1fb3 2dbe f643 b83d a4b7 10be 965f d5bd
00000340: 564f edbc 7d29 883d b7c8 81be 4f1d 953b
00000350: f811 82bd 1d34 63bd f2f3 2ebe 64bd 79bd
00000360: cdb4 80be b3cf 67be c776 89bd 81ec dfbe
00000370: ece2 94be aa77 02be d725 ccbe b1c4 71be
00000380: c5d4 40be 3871 29be 8536 b4bc 49a6 b33e
00000390: 94bd 84bc 65b1 1e3e c3eb ea3e 4442 4fbe
000003a0: 2b0f 1c3e 3569 2a3e 1438 8a3d 78f4 1d3e
000003b0: a621 953e ee10 40bc bbde 113e 38ac 743e
000003c0: 776f 90bd 2e7d 7c3b 6dcf 0f3e f850 d5bc
000003d0: b18e 673e 40d1 543e 7781 0cbe ab3d b0bc
000003e0: 7c3d 8b3e 69d7 94be e91e 4cbd 2f45 fa3d
000003f0: 500f 3d3e 0fe3 573e 81c3 743e 6e75 893d

seq32_32.1.conv2.bias f4 [16]
-0.027395375 -0.015201222 -0.027407266 0.020178396 -0.008040656 -0.034249794 0.018329445 -0.0014058743
0.0049836445 0.028908603 0.0020269102 0.035741515 -0.022514658 -0.036320206 0.003315362 0.03218495
00000000: 446c e0bc 8c0e 79bc 3485 e0bc 2a4d a53c
00000010: f5bc 03bc 8349 0cbd a227 963c 5045 b8ba
00000020: d74d a33b bcd1 ec3c e9d5 043b b265 123d
00000030: a970 b8bc 7fc4 14bd 8b46 593b 5ed4 033d

seq32_32.1.bn2.weight f4 [16]
0.61513144 0.73550767 0.8452503 0.5050795 0.43544942 1.202894 1.1162219 0.7591399
1.6215682 0.42158931 0.77539486 0.64743143 0.6795911 0.6477349 1.013429 1.0435691
00000000: 4179 1d3f 3b4a 3c3f 5362 583f e44c 013f
00000010: 3af3 de3e 6ef8 993f 5ce0 8e3f fe56 423f
00000020: 8c8f cf3f 8eda d73e 4780 463f 11be 253f
00000030: aff9 2d3f f4d1 253f 0bb8 813f ac93 853f

seq32_32.1.bn2.bias f4 [16]
0.21998228 0.1201316 -0.23109816 0.059899896 0.4536973 0.13039276 -0.47713244 -0.06181556
0.32900107 0.39850485 -0.10247159 -0.076261416 0.5479993 0.05846582 -0.105452664 -1.8252975
00000000: 0943 613e 8e07 f63d ffa4 6cbe 9859 753d
00000010: 034b e83e ae85 053e b44a f4be 5032 7dbd
00000020: d472 a83e d408 cc3e a0dc d1bd f22e 9cbd
00000030: af49 0c3f db79 6f3d 91f7 d7bd 59a3 e9bf

seq32_32.1.bn2.running_mean f4 [16]
0.2290077 1.5175539 0.089399055 0.5686404 -1.8599191 -1.7369763 -0.032408483 1.1809435
-2.3337972 1.37169 -0.49626574 0.99181575 -0.11810503 -0.0559758 -0.4987178 0.90340066
00000000: ff80 6a3e 353f c23f da16 b73d 6b92 113f
00000010: d411 eebf 3d55 debf c2be 04bd 2829 973f
00000020: ef5c 15c0 8a93 af3f 8b16 febe a3e7 7d3f
00000030: 0de1 f1bd e146 65bd f157 ffbe 4445 673f

seq32_32.1.bn2.running_var f4 [16]
1.1539307 3.103483 2.6122177 1.6013994 1.9793913 3.6003444 4.0883284 1.4903888
5.195148 1.6296501 1.9311343 1.5709344 1.2147319 1.5422583 2.498819 2.0288978
00000000: 00b4 933f 779f 4640 932e 2740 a8fa cc3f
00000010: b25c fd3f 0b6c 6640 96d3 8240 0fc5 be3f
00000020: a73e a640 6098 d03f 692f f73f 6114 c93f
00000030: 567c 9b3f b868 c53f a7ec 1f40 76d9 0140

seq16_16.0.conv1.weight f4 [32, 16, 3, 3]
0.09257892 0.22397318 0.03044509 0.2071097 0.014377479 -0.15918162 0.07978551 -0.2063215
-0.10812587 -0.04811717 0.13535906 -0.1188964 0.13199161 0.11409827 -0.10104725 0.025403773
0.043352854 0.12580521 -0.10826368 -0.09293379 0.014906386 0.06563764 -0.19993237 -0.07729394
0.01871886 0.11085595 -0.036104888 0.4744371 0.1908291 -0.2771327 0.26346406 -0.19849047
-0.13776019 0.021415506 -0.2030471 0.15071504 -0.0596129 -0.10280697 0.11730046 -0.08615855
-0.036428932 0.14268827 -0.14346214 0.054572705 0.09527082 0.053975906 0.055678654 -0.21508205
-0.034903735 -0.02677021 -0.011862495 -0.0039209956 0.069238685 0.06221069 -0.17667663 -0.099643044
0.075518884 -0.18303853 -0.13517077 -0.10981123 -0.058822703 0.06869523 -0.139355 -0.05089251
0.00069188746 -0.2107416 -0.094714865 -0.1783477 -0.18883969 -0.16480872 -0.20860091 -0.039981883
0.11343786 -0.054405343 -0.10333337 -0.12028641 -0.0065577882 -0.004447918 -0.14163013 0.013134838
0.0397254 -0.00018091372 -0.0972965 -0.07357845 -0.14455965 -0.18593466 0.060925953 -0.24327092
-0.1202956 0.021618204 -0.3281403 -0.18103433 0.37507647 -0.014806624 0.069666505 0.41390008
0.1995999 0.16465181 -0.08242643 -0.037670385 0.21439089 -0.05639156 0.020196887 0.1387757
-0.30570775 0.10384905 0.05803154 -0.19296756 0.24003485 0.10361524 -0.08312718 0.16652639
-0.08994252 -0.2232505 0.09118342 -0.22510178 -0.120769225 0.26215702 0.276224 0.067318745
0.17651007 -0.03243539 -0.37123504 -0.023389576 -0.38750204 -0.1390834 -0.4062711 0.1675551
0.35516635 -0.021329248 0.39250004 0.24800245 0.15369406 0.28816417 -0.25001997 -0.08652706
-0.1273314 -0.0038168973 0.027957559 -0.006838626 0.36460212 -0.01742152 0.07089153 0.09395489
0.13465144 -0.07043322 -0.26307276 0.13957843 -0.11585955 -0.12922765 0.01912351 -0.21442021
-0.2750515 -0.0056544403 -0.17674215 -0.1927835 -0.1496436 -0.3420678 -0.24664086 -0.12565011
-0.38783547 -0.2732385 -0.21030775 -0.079010636 -0.0692816 -0.15585266 -0.0025264667 -0.11051665
0.05601778 -0.032002714 -0.23489851 0.032798275 -0.009464156 -0.15652147 0.13362618 0.07816307
-0.06265202 0.054099746 -0.19392975 -0.21166173 -0.31803945 -0.21512538 0.0395347 -0.36157447
-0.13441382 0.19654505 -0.3040424 0.074785985 0.31611958 -0.36020017 0.0066417595 0.3812585
-0.3489919 0.16917925 0.39315772 -0.017038943 0.34718052 0.5447677 -0.025242299 0.07963381
0.24576117 0.025414383 0.052231517 0.06733814 0.017503956 0.05774976 0.12206316 -0.014063064
-0.034840044 -0.2562006 0.05952619 0.002704554 -0.19244473 0.21813983 0.10824605 -0.068383925
-0.52736855 -0.15098462 0.25430918 -0.45553684 -0.067817554 0.3533483 -0.29507238 0.012867034
0.40346116 0.023303287 -0.03464434 -0.27479225 0.01833291 -0.07157143 -0.16580506 -0.08329764
-0.18139252 -0.14304388 0.16511449 0.10881221 -0.211335 0.16131598 0.09159461 -0.3199692
0.115843594 0.003494315 -0.42544603 -0.026090778 0.11223672 -0.10582779 0.23421298 0.27089298
0.034300596 0.057941258 -0.013459187 -0.22067617 -0.10399438 0.0070017353 0.057575125 -0.21331657
00000000: 049a bd3d 3a59 653e fb67 f93c 9114 543e
00000010: 858f 6b3c 8200 23be 9666 a33d f145 53be
00000020: 1971 ddbd 8216 45bd 919b 0a3e f57f f3bd
00000030: cf28 073e 5bac e93d dcf1 cebd 931b d03c
00000040: c392 313d 15d3 003e 59b9 ddbd 1254 bebd
00000050: ea39 743c 076d 863d 12bb 4cbe 494c 9ebd
00000060: 4b58 993c 7208 e33d b8e2 13bd 6be9 f23e
00000070: b468 433e 56e4 8dbe c3e4 863e 1641 4bbe
00000080: 0211 0dbe 926f af3c 94eb 4fbe 0b55 1a3e
00000090: a82c 74bd 768c d2bd 393b f03d e573 b0bd
000000a0: 8136 15bd e01c 123e bde7 12be a187 5f3d
000000b0: 591d c33d d715 5d3d 4d0f 643d 783e 5cbe
000000c0: 38f7 0ebd 334d dbbc e95a 42bc b27b 80bb
000000d0: 03cd 8d3d a3d0 7e3d b8ea 34be a711 ccbd
000000e0: a5a9 9a3d 746e 3bbe 356a 0abe b6e4 e0bd
000000f0: 13f0 70bd 16b0 8c3d 14b3 0ebe aa74 50bd
00000100: c85f 353a a5cc 57be def9 c1bd c8a0 36be
00000110: 315f 41be 9ec3 28be 7a9b 55be 0bc4 23bd
00000120: 1c52 e83d 23d8 5ebd 72a0 d3bd b958 f6bd
00000130: b7e2 d6bb d7bf 91bb 7d07 11be 8133 573c
00000140: 1ab7 223d a8b3 3db9 6343 c7bd 4cb0 96bd
00000150: 7207 14be a865 3ebe 7e8d 793d 031c 79be
00000160: 8a5d f6bd a918 b13c 0102 a8be 1061 39be
00000170: 060a c03e 7b97 72bc 50ad 8e3d b6ea d33e
00000180: eb63 4c3e 7c9a 283e 30cf a8bd 434c 1abd
00000190: 4989 5b3e d6fa 66bd f173 a53c 381b 0e3e
000001a0: ba85 9cbe d0ae d43d 7bb2 6d3d 4a99 45be
000001b0: b2cb 753e 3a34 d43d 953e aabd e585 2a3e
000001c0: c933 b8bd c79b 64be 5fbe ba3d 1581 66be
000001d0: db55 f7bd 7239 863e 3b6d 8d3e 69de 893d
000001e0: 0ebf 343e f9da 04bd 8512 bebe 7f9b bfbc
000001f0: ab66 c6be e16b 0ebe c402 d0be 9093 2b3e
00000200: 5dd8 b53e adba aebc c4f5 c83e 5bf4 7d3e
00000210: fa61 1d3e 418a 933e 9e02 80be 1935 b1bd
00000220: 2a63 02be e924 7abb 4007 e53c 8e16 e0bb
00000230: 21ad ba3e 93b7 8ebc 942f 913d 6c6b c03d
00000240: 11e2 093e 4b3f 90bd 79b1 86be a6ed 0e3e
00000250: c647 edbd 4154 04be e8a8 9c3c f990 5bbe
00000260: 8dd3 8cbe e248 b9bb e5fb 34be 0a69 45be
00000270: 2c3c 19be 8323 afbe 6c8f 7cbe 6caa 00be
00000280: 5f92 c6be ebe5 8bbe ea5a 57be 54d0 a1bd
00000290: 83e3 8dbd d797 1fbe 1493 25bb 8e56 e2bd
000002a0: e672 653d 4715 03bd 3c89 70be 7c57 063d
000002b0: 8c0f 1bbc 2a47 20be 4dd5 083e f613 a03d
000002c0: b44f 80bd b297 5d3d 8595 46be dabd 58be
000002d0: 11d6 a2be d449 5cbe 23ef 213d 4a20 b9be
000002e0: c7a3 09be 1b43 493e 72ab 9bbe 6529 993d
000002f0: 6dda a13e 286c b8be 1ea3 d93b 5034 c33e
00000300: 11af b2be 533d 2d3e f84b c93e 4195 8bbc
00000310: a5c1 b13e e575 0b3f f0c8 cebc 0d17 a33d
00000320: d1a8 7b3e d331 d03c b7f0 553d 94e8 893d
00000330: 7564 8f3c 038b 6c3d 40fc f93d c468 66bc
00000340: 6fb4 0ebd ba2c 83be bcd1 733d e33e 313b
00000350: 3b10 45be 0c60 5f3e 1bb0 dd3d df0c 8cbd
00000360: a001 07bf b69b 1abe d034 823e 203c e9be
00000370: eee3 8abd 12ea b43e ba13 97be 41d0 523c
00000380: 7692 ce3e 89e6 be3c 39e7 0dbd 92b1 8cbe
00000390: e62e 963c 0b94 92bd cdc8 29be f497 aabd
000003a0: f6be 39be 187a 12be c613 293e f0d8 de3d
000003b0: 3468 58be 0430 253e f495 bb3d 01d3 a3be
000003c0: 683f ed3d e100 653b 10d4 d9be 54bc d5bc
000003d0: 5edc e53d 3ebc d8bd 87d5 6f3e 7cb2 8a3e
000003e0: c87e 0c3d d053 6d3d ec83 5cbc eff8 61be
000003f0: 01fb d4bd d06e e53b e5d3 6b3d a96f 5abe

seq16_16.0.conv1.bias f4 [32]
-0.018222485 -0.029335333 -0.019223321 -0.0066927886 -0.032640204 0.0004207915 0.008829918 0.02577788
-0.0047462587 0.012804816 -0.037079077 0.034048185 -0.023494631 -0.012419379 -0.02850364 -0.00468622
0.0026872647 0.0051695057 -0.008561348 -0.021134099 -0.029484086 0.004063389 0.020429712 -0.012962258
0.00037311975 0.013395906 0.03349603 0.024433723 -0.024624847 -0.0018765458 -0.0322017 -0.00086767477
00000000: 5247 95bc a750 f0bc 3a7a 9dbc 2e4f dbbb
00000010: bcb1 05bd ae9d dc39 5cab 103c 222c d33c
00000020: 8186 9bbb 4acb 513c 3be0 17bd 1c76 0b3d
00000030: d077 c0bc a77a 4bbc 7780 e9bc dd8e 99bb
00000040: d21c 303b f564 a93b e544 0cbc 6b21 adbc
00000050: 9c88 f1bc 2d26 853b 365c a73c a75f 54bc
00000060: 499f c339 817a 5b3c 2233 093d 3b29 c83c
00000070: 0cba c9bc 6ef6 f5ba eee5 03bd ab74 63ba
