models/student.pt (torch, 740938 bytes, 90 tensors)

conv1.weight f4 [16, 3, 3, 3]
0.48434788 3.0590284 0.36278263 0.3040082 -0.45448267 0.56472135 -0.12707204 -0.813845
0.03591986 -1.0991863 0.7233463 -0.9863151 -0.5807723 -2.7378247 -0.7383717 0.7833281
-0.6328354 0.16620378 -0.3678249 1.2713737 -0.72449577 0.201543 -0.1566161 0.6039876
0.31696406 0.8597157 0.5411096 0.1388858 0.17940761 0.0181128 0.25639135 0.43886432
0.04698092 0.13040076 0.3167274 0.117782414 0.3521693 0.32362032 -0.17864072 0.5431229
0.5575456 0.06989692 0.34974435 0.5227373 0.0545331 0.27775118 0.3260285 0.05572133
0.4247512 0.6180366 0.20286492 0.45772508 0.43775386 0.24369897 0.54338187 0.4504359
-0.01913552 0.55610293 -0.023387035 -0.094669394 0.2197324 -0.9248227 -0.46181223 0.7896097
0.5131571 -0.14327179 0.5560093 0.0067781014 -0.31225613 -0.15674412 -1.1425136 -0.54520303
0.5789826 0.6496273 0.13200313 0.5805057 0.3452679 0.1832455 -0.42915025 -1.0645429
-0.6278786 -0.12456204 -0.37201607 -0.16732268 -1.0323949 -1.1346736 -0.746362 -0.5482626
-0.89893156 -0.39691854 0.85344166 0.9997019 0.43815854 0.5076034 0.69699067 0.4420703
0.41536978 0.20898403 0.23478596 -0.39389375 -0.13877206 -0.36871675 -0.040332805 0.45377573
0.18102117 -0.008502209 0.046266064 -0.20158106 -0.19382131 -0.67958695 -0.17565879 -0.62099844
-0.9176101 -0.79527384 -0.34022617 -0.88643163 -0.42882228 0.070697114 -0.33180085 -0.2527434
-0.21758378 0.2645402 -0.2593093 -0.24214211 -0.07406092 -0.20380045 -0.06270946 0.5220364
0.164454 0.6001627 1.7545627 1.0017074 0.5199774 1.3015635 0.79414237 1.0838109
1.7595915 1.5727623 -0.045579083 -0.18399762 -0.30964163 -1.0797517 -1.5930414 -1.4973723
-0.65656614 -0.47030395 -0.57192284 0.24132018 0.12505281 -0.3758271 0.7491395 0.8803624
0.20836493 -1.0842044 -1.0220579 -0.94036573 -0.07565565 0.25509495 0.33457208 0.23113178
1.3630288 1.11758 -0.18283097 -0.8352013 -0.17951964 0.04307024 1.7587818 0.6895274
-0.23491484 0.4909851 -0.15417534 -0.71663237 -1.0904782 -0.37790143 -1.0585454 1.2123778
0.50848806 -0.57309234 0.49038184 0.32341877 0.24229287 -0.76500654 -0.4002096 -0.6341414
0.7950179 -0.043092553 0.20177495 0.70109016 0.25543654 0.05466358 0.0031173974 -0.025780799
0.12888443 0.0602953 0.009189475 0.16673172 0.1733452 0.14742658 0.022962421 -0.088779174
-0.040579434 0.16073056 0.13879077 0.05269415 0.10605762 0.18258058 0.10385507 0.0029528055
0.05643093 -0.03296408 0.10202059 0.09399716 0.08543683 0.2597891 0.21684161 0.09746143
0.1321673 0.17976914 0.19229878 0.069748335 0.18014854 0.1335125 0.22254089 0.10598534
0.22410461 0.32390928 0.15818723 0.25312346 0.24375327 0.16813916 0.34445855 0.21390493
0.23178414 0.3243305 0.07849954 0.053821832 0.11902602 -0.0021394873 0.034757942 0.031946238
0.16681103 0.106291525 0.13363768 0.13410924 1.0230743 0.55991435 -0.5101925 0.4921498
0.65265316 -0.6419492 -1.2641019 -0.047157962 -0.7781817 0.5416752 0.76871985 -1.197629
00000000: 72fc f73e 1fc7 4340 a5be b93e f6a6 9b3e
00000010: f4b1 e8be 9491 103f 2c1f 02be 2558 50bf
00000020: b420 133d 23b2 8cbf 392d 393f 257f 7cbf
00000030: 7ead 14bf 8538 2fc0 ed05 3dbf 3188 483f
00000040: 8001 22bf 5331 2a3e 8c53 bcbe 60bc a23f
00000050: 8e78 39bf 4a61 4e3e f95f 20be ee9e 1a3f
00000060: 1d49 a23e 5416 5c3f 2986 0a3f 1438 0e3e
00000070: a1b6 373e 4b61 943c ba45 833e d3b2 e03e
00000080: 116f 403d c787 053e 182a a23e e837 f13d
00000090: 894f b43e 90b1 a53e 98ed 36be 1a0a 0b3f
000000a0: 4fbb 0e3f 1e26 8f3d b111 b33e 1dd2 053f
000000b0: 1a5e 5f3d 6735 8e3e 35ed a63e 0d3c 643d
000000c0: fd78 d93e a637 1e3f d2bb 4f3e f15a ea3e
000000d0: 4621 e03e 398c 793e 131b 0b3f 899f e63e
000000e0: 18c2 9cbc c35c 0e3f 2b96 bfbc 07e2 c1bd
000000f0: 8801 613e 2ec1 6cbf a772 ecbe dc23 4a3f
00000100: 445e 033f d7b5 12be a056 0e3f d61a de3b
00000110: 09e0 9fbe 8881 20be e33d 92bf 6d92 0bbf
00000120: 3438 143f fa4d 263f d42b 073e 069c 143f
00000130: f4c6 b03e b5a4 3b3e 95b9 dbbe f142 88bf
00000140: a7bc 20bf 621a ffbd e478 bebe a356 2bbe
00000150: 8425 84bf fc3c 91bf 9411 3fbf f05a 0cbf
00000160: 6120 66bf e838 cbbe 277b 5a3f 77ec 7f3f
00000170: 5156 e03e 4cf2 013f fb6d 323f 0a57 e23e
00000180: 59ab d43e e9ff 553e bb6b 703e 71ac c9be
00000190: 431a 0ebe 71c8 bcbe 0334 25bd 4b55 e83e
000001a0: 9d5d 393e d94c 0bbc 7c81 3d3d 446b 4ebe
000001b0: 1879 46be 69f9 2dbf e6df 33be c1f9 1ebf
000001c0: 7fe8 6abf 1197 4bbf 2032 aebe 2fed 62bf
000001d0: 988e dbbe a6c9 903d cde1 a9be 9567 81be
000001e0: 48ce 5ebe d071 873e 30c4 84be 1af4 77be
000001f0: 40ad 97bd 11b1 50be d16d 80bd 2da4 053f
00000200: a166 283e 43a4 193f 8395 e03f f337 803f
00000210: 3d1d 053f a299 a63f ea4c 4b3f 51ba 8a3f
00000220: 4b3a e13f 4650 c93f 22b1 3abd df69 3cbe
00000230: 5989 9ebe 4e35 8abf c8e8 cbbf e5a9 bfbf
00000240: b814 28bf aecb f0be 8969 12bf a31c 773e
00000250: d80d 003e 696c c0be 9bc7 3f3f 6e5f 613f
00000260: 9e5d 553e 36c7 8abf cbd2 82bf cfbb 70bf
00000270: 59f1 9abd ce9b 823e 084d ab3e cfad 6c3e
00000280: ba77 ae3f dd0c 8f3f 0b38 3bbe c1cf 55bf
00000290: ffd3 37be 6c6a 303d c31f e13f de84 303f
000002a0: 848d 70be 6662 fb3e 24e0 1dbe 3875 37bf
000002b0: ca94 8bbf 4c7c c1be 6a7e 87bf 322f 9b3f
000002c0: 462c 023f 2eb6 12bf 5413 fb3e 2597 a53e
000002d0: 9f1b 783e 78d7 43bf 46e8 ccbe 1757 22bf
000002e0: 4b86 4b3f d181 30bd 189e 4e3e a57a 333f
000002f0: 94c8 823e ebe6 5f3d 404d 4c3b 4132 d3bc
00000300: 48fa 033e 34f8 763d 748f 163c b8bb 2a3e
00000310: 6781 313e fef6 163e b01b bc3c dbd1 b5bd
00000320: 9f36 26bd 8d96 243e 2b1f 0e3e d2d5 573d
00000330: bd34 d93d 67f6 3a3e f8b1 d43d db83 413b
00000340: 1e24 673d 5805 07bd 2cf0 d03d 9581 c03d
00000350: 81f9 ae3d 1403 853e ba0b 5e3e dc99 c73d
00000360: dd56 073e 6715 383e f9e9 443e 37d8 8e3d
00000370: dc78 383e 80b7 083e c2e1 633e d80e d93d
00000380: ae7b 653e 70d7 a53e d5fb 213e 6699 813e
00000390: 759a 793e ac2c 2c3e df5c b03e e509 5b3e
000003a0: d258 6d3e a60e a63e 5ec4 a03d 4874 5c3d
000003b0: eac3 f33d a436 0cbb 585e 0e3d 0fda 023d
000003c0: 83d0 2a3e 5faf d93d 51d8 083e ef53 093e
000003d0: 19f4 823f 8c56 0f3f fa9b 02bf 0ffb fb3e
000003e0: 4714 273f c856 24bf 17ce a1bf b528 41bd
000003f0: ea36 47bf 3aab 0a3f d3ca 443f e84b 99bf

conv1.bias f4 [16]
-0.040860094 0.03352546 -0.06666523 0.050347436 -0.05480236 -0.06497819 0.06516539 0.07061629
0.08470064 -0.049658433 0.06305469 0.0761345 -0.02227566 -0.068165705 -0.07977585 -0.080629736
00000000: ea5c 27bd fe51 093d c887 88bd 1d39 4e3d
00000010: 7078 60bd 4913 85bd 6f75 853d 469f 903d
00000020: 8777 ad3d a466 4bbd d122 813d 68ec 9b3d
00000030: 727b b6bc 769a 8bbd 8561 a3bd 3421 a5bd

bn1.weight f4 [16]
1.3883806 0.7597194 1.1965551 0.8087032 1.1025802 1.2841431 1.361542 0.11034302
0.10639157 1.3794405 0.1474718 1.7713636 0.21506877 0.98553383 1.6235356 1.5950449
00000000: 75b6 b13f f87c 423f b828 993f 2c07 4f3f
00000010: 5921 8d3f cd5e a43f 0247 ae3f 85fb e13d
00000020: d3e3 d93d 8291 b03f d902 173e 0bbc e23f
00000030: fd3a 5c3e f24b 7c3f 04d0 cf3f 6e2a cc3f

bn1.bias f4 [16]
2.3247612 1.5433792 0.5010876 0.61976045 0.6891428 -0.12621845 1.0253462 -0.28714484
-0.29487875 1.5080593 -0.41199738 0.8926183 -0.27655965 -0.47545058 0.021775723 1.4734869
00000000: e3c8 1440 738d c53f 4747 003f 9fa8 1e3f
00000010: aa6b 303f 693f 01be 8b3e 833f a604 93be
00000020: 59fa 96be 1608 c13f 52f1 d2be a282 643f
00000030: 3a99 8dbe 426e f3be 0063 b23c 389b bc3f

bn1.running_mean f4 [16]
-0.2775649 -1.2884562 -0.121910915 0.15403698 -0.67374456 -0.10515285 -0.08299491 -0.32305533
-0.61461973 -0.08426988 -0.9678101 -0.15662365 -0.7676047 -0.4343575 0.3069832 -0.35957608
00000000: fd1c 8ebe 22ec a4bf 6eac f9bd dfbb 1d3e
00000010: 867a 2cbf 615a d7bd 3cf9 a9bd 8267 a5be
00000020: b857 1dbf b095 acbd 67c2 77bf f361 20be
00000030: be81 44bf 1b64 debe e72c 9d3e 5b1a b8be

bn1.running_var f4 [16]
1.356811 12.078354 3.9210145 1.1559523 3.2849522 0.44983357 2.656317 1.1692455
4.073875 4.739268 7.141327 5.6929264 4.121207 0.89265144 2.9314115 1.5929021
00000000: fcab ad3f f040 4141 e7f1 7a40 3ff6 933f
00000010: a83c 5240 9650 e63e 1901 2a40 d6a9 953f
00000020: 2f5d 8240 15a8 9740 c085 e440 742c b640
00000030: eee0 8340 ce84 643f 3f9c 3b40 37e4 cb3f

seq32_32.0.conv1.weight f4 [16, 16, 3, 3]
-0.29696345 0.10366521 -0.36790293 -0.07332959 -0.16458286 -0.15218182 0.42783102 0.273647
0.0025463197 0.085059874 0.13657005 0.09858932 -0.016516998 0.03856189 0.041502398 -0.3063152
-0.19242802 -0.1375636 -0.08698965 -0.35124716 -0.37039003 0.36655527 0.09901755 -0.2006004
0.33721143 0.28156975 0.14593634 -0.13243821 -0.1861001 -0.19888377 0.1324583 0.061155654
-0.02241196 0.20670812 0.23286219 0.041287497 0.14697458 0.046531696 -0.13235824 0.1662258
0.18905015 -0.023262113 -0.06547588 -0.027930358 -0.14324065 0.071201384 -0.008528731 -0.22604686
0.14019372 0.050786935 0.016797246 -0.12395311 0.007382172 -0.16187957 0.097777784 0.07122887
0.0334546 -0.050605725 0.17163415 0.04175757 -0.6176546 -0.30800864 -0.16678809 0.088063754
0.05196853 0.041957222 0.0036410317 -0.011453808 -0.013943538 -0.058071516 -0.012931651 -0.031205267
0.030297963 0.06866041 0.08222172 0.0077071274 -0.004299566 0.01041694 0.025069421 -0.012304919
-0.04440911 -0.50099033 -0.25550908 -0.20173042 -0.00598062 0.054406285 -0.045555808 0.185442
0.2634837 -0.13851982 -0.0135046635 -0.033414595 -0.048709948 -0.03900325 -0.057149503 -0.050570715
-0.1324644 -0.09178689 -0.11157216 0.13304736 0.2493416 -0.0904092 0.21905126 -0.04545251
0.2478371 0.29663736 0.1550395 0.18541004 -0.030508716 -0.03092206 -0.10082383 -0.04883552
-0.008023852 -0.037440527 -0.10762143 -0.062475596 -0.0694032 0.18063797 0.10783688 0.06168055
0.13588008 0.19647893 0.08145124 -0.008650299 0.06274504 -0.028950194 -0.2774715 -0.06763925
-0.15271752 -0.27174142 -0.21799594 -0.13879205 -0.04421322 -0.026995935 -0.20515619 -0.3880439
-0.46293154 -0.10111633 0.3628781 0.09371542 -0.11756201 0.0006546132 -0.088835485 0.08368847
0.08281513 -0.17887631 0.07847676 0.08507357 -0.41002324 -0.35625052 0.782875 0.13311948
-0.5396072 0.048876073 -0.098984115 -0.19379534 0.20339319 -0.06139192 -0.2006822 0.14380531
-0.010750911 -0.2315377 -0.15394458 0.0378332 0.31889316 -0.19685167 -0.22099636 -0.1141622
-0.07340175 -0.1401012 -0.16978596 -0.14905235 0.135837 0.55175585 -0.09938998 -0.131721
0.02112129 -0.024472782 -0.16004406 -0.18620117 0.024871653 -0.0024242804 0.21416885 -0.02545681
-0.20823671 -0.17489877 -0.026245821 -0.27653316 -0.25164732 0.026787678 -0.03828595 -0.044103146
0.108460255 -0.17828433 -0.30210897 0.3515323 0.02033014 -0.16731495 0.07485956 -0.2199675
-0.4697929 0.27067253 0.15261091 -0.11929199 -0.09611974 0.11354158 0.052822407 0.15341714
0.0026682708 -0.0003917113 0.19576785 0.09752268 0.008585352 0.17378657 0.109806806 0.10684865
0.11155203 0.052562524 0.031760953 0.0883701 0.08158346 0.014759907 0.14638807 0.13687643
0.09022483 -0.1062211 -0.353954 -0.17065878 -0.10971483 -0.2624126 -0.31918707 0.08284693
-0.03579262 -0.049230926 0.1384247 0.104905464 0.09468098 0.11771826 0.090801306 0.07339705
0.15754007 0.11532332 0.07052903 -0.0061678444 0.3341264 -0.0038153508 -0.27514797 0.17239532
-0.46340087 -0.34947255 -0.0044906163 -0.55561066 0.07749414 -0.009707926 -0.14351773 0.13649474
00000000: 980b 98be 6d4e d43d c65d bcbe d32d 96bd
00000010: 6988 28be 8dd5 1bbe ab0c db3e 761b 8c3e
00000020: 28e0 263b df33 ae3d 05d9 0b3e 33e9 c93d
00000030: a84e 87bc 13f3 1d3d 6bfe 293d 59d5 9cbe
00000040: da0b 45be 79dd 0cbe a127 b2bd abd6 b3be
00000050: c3a3 bdbe 22ad bb3e b7c9 ca3d 316a 4dbe
00000060: faa6 ac3e e929 903e 5670 153e e29d 07be
00000070: 0691 3ebe 30a8 4bbe 26a3 073e 5a7e 7a3d
00000080: 4999 b7bc 4bab 533e 6d73 6e3e 141d 293d
00000090: 8180 163e 0598 3e3d eb88 07be 1937 2a3e
000000a0: 5d96 413e 3090 bebc 3818 86bd 35ce e4bc
000000b0: adad 12be 08d2 913d 17bc 0bbc d478 67be
000000c0: f18e 0f3e f605 503d 619a 893c 21db fdbd
000000d0: 26e6 f13b c2c3 25be b83f c83d 71e0 913d
000000e0: b107 093d f347 4fbd ddc0 2f3e fc09 2b3d
000000f0: 9d1e 1ebf 4fb3 9dbe 7fca 2abe c55a b43d
00000100: f4dc 543d 56db 2b3d 609e 6e3b c1a8 3bbc
00000110: 7073 64bc 66dc 6dbd 47df 53bc 30a2 ffbc
00000120: 6f33 f83c d49d 8c3d dc63 a83d 128c fc3b
00000130: 60e3 8cbb d0ab 2a3c 635e cd3c 929a 49bc
00000140: 54e6 35bd e740 00bf 16d2 82be 6b92 4ebe
00000150: 14f9 c3bb 20d9 5e3d ba98 3abd 82e4 3d3e
00000160: 56e7 863e 24d8 0dbe aa42 5dbc bedd 08bd
00000170: 1584 47bd dfc1 1fbd 9915 6abd 3d23 4fbd
00000180: bfa4 07be c4fa bbbd f27f e4bd 913d 083e
00000190: 6853 7f3e 7528 b9bd f94e 603e 692c 3abd
000001a0: 02c9 7d3e dae0 973e adc2 1e3e 21dc 3d3e
000001b0: 6aed f9bc 4350 fdbc b97c cebd c107 48bd
000001c0: 7976 03bc 3d5b 19bd a068 dcbd 69e6 7fbd
000001d0: 4423 8ebd 29f9 383e 95d9 dc3d bfa4 7c3d
000001e0: 2624 0b3e c631 493e e8cf a63d fcb9 0dbc
000001f0: 7980 803d f528 edbc bf10 8ebe 7286 8abd
00000200: fb61 1cbe b121 8bbe 543a 5fbe 811f 0ebe
00000210: ec18 35bd 9426 ddbc 7714 52be b1ad c6be
00000220: 5d05 edbe 1416 cfbd 29cb b93e dfed bf3d
00000230: 5ac4 f0bd 599a 2b3a 61ef b5bd dc64 ab3d
00000240: fb9a a93d 5a2b 37be 6cb8 a03d 0d3b ae3d
00000250: 91ee d1be 7866 b6be 7f6a 483f 7950 083e
00000260: b323 0abf 4732 483d 2fb8 cabd 4972 46be
00000270: 4e46 503e 1876 7bbd a27f 4dbe b341 133e
00000280: 9724 30bc 3818 6dbe a6a3 1dbe fcf6 1a3d
00000290: f745 a33e 7c93 49be df4c 62be dfcd e9bd
000002a0: a853 96bd b076 0fbe 5fdc 2dbe 2ea1 18be
000002b0: db18 0b3e df3f 0d3f f98c cbbd dfe1 06be
000002c0: 8e06 ad3c 257b c8bc 97e2 23be 85ab 3ebe
000002d0: a3bf cb3c ade0 1ebb 144f 5b3e cd8a d0bc
000002e0: 013c 55be aa18 33be 7a01 d7bc c195 8dbe
000002f0: ebd7 80be d571 db3c bad1 1cbd 80a5 34bd
00000300: 6920 de3d 2b90 36be 07ae 9abe 0bfc b33e
00000310: 658b a63c 9c54 2bbe f84f 993d 293f 61be
00000320: b288 f0be 9795 8a3e 0946 1c3e 5c4f f4bd
00000330: 6dda c4bd 7d88 e83d 4f5c 583d 6219 1d3e
00000340: 28de 2e3b 9a5e cdb9 5e77 483e f9b9 c73d
00000350: 94a9 0c3c 1bf5 313e 64e2 e03d 77d3 da3d
00000360: 6475 e43d cd4b 573d c617 023d 62fb b43d
00000370: 3b15 a73d 89d3 713c c1e6 153e 5629 0c3e
00000380: ccc7 b83d 738a d9bd 7539 b5be 2dc1 2ebe
00000390: 2bb2 e0bd f25a 86be 7d6c a3be a7ab a93d
000003a0: 489b 12bd 5ea6 49bd 34bf 0d3e add8 d63d
000003b0: 1ae8 c13d 4516 f13d 09f6 b93d 3151 963d
000003c0: 2f52 213e a22e ec3d 8671 903d a11b cabb
000003d0: 9e12 ab3e f70a 7abb 32e0 8cbe 6688 303e
000003e0: e142 edbe 11ee b2be 0526 93bb 803c 0ebf
000003f0: 3fb5 9e3d fe0d 1fbc 50f6 12be 47c5 0b3e

seq32_32.0.conv1.bias f4 [16]
0.012790561 0.016749436 0.026022924 0.008446688 0.018220007 0.024896877 -0.0026818626 0.0077724373
0.01851944 0.036165427 0.007647712 0.033723526 -0.019654658 -0.023085384 -0.02333576 -0.02858279
00000000: 808f 513c 1d36 893c 072e d53c fa63 0a3c
00000010: 2042 953c 89f4 cb3c 30c2 2fbb eeaf fe3b
00000020: 15b6 973c 3322 143d a899 fa3b ae21 0a3d
00000030: ce02 a1bc 8f1d bdbc a32a bfbc 7526 eabc

seq32_32.0.bn1.weight f4 [16]
0.6375218 1.0047048 1.09727 0.6498262 0.5550169 0.8815569 0.6755225 0.28999382
0.6940154 1.1148691 1.0104645 1.0905676 1.4637997 0.82333994 0.9907981 0.7557781
00000000: a134 233f 2b9a 803f 5873 8c3f 035b 263f
00000010: 9615 0e3f b7ad 613f 0bef 2c3f 127a 943e
00000020: feaa 313f 08b4 8e3f e756 813f b897 8b3f
00000030: ca5d bb3f 68c6 523f f2a4 7d3f ac7a 413f

seq32_32.0.bn1.bias f4 [16]
0.5396116 -0.29364133 -0.7048048 -0.10284714 -0.76631445 -0.08434445 -0.28827044 -0.40391663
-0.15200247 0.057473492 0.3475642 1.1077603 -0.6972868 -0.19509721 -0.07803646 0.063973434
00000000: fc23 0a3f 2858 96be 166e 34bf 85a1 d2bd
00000010: 2f2d 44bf c8bc acbd 2f98 93be 29ce cebe
00000020: 89a6 1bbe 5369 6b3d eff3 b13e 17cb 8d3f
00000030: 6381 32bf 90c7 47be 94d1 9fbd 8104 833d

seq32_32.0.bn1.running_mean f4 [16]
-2.6146402 -5.8246694 0.44511208 9.225215 -1.6108613 -1.4272691 -8.132676 -8.322189
-10.131768 0.8097648 -4.6089005 -1.3629735 -3.5382519 2.719939 -5.305513 -8.092636
00000000: 4456 27c0 b163 bac0 bbe5 e33e 7b9a 1341
00000010: b430 cebf c1b0 b6bf 711f 02c1 b027 05c1
00000020: b91b 22c1 bf4c 4f3f 1d7c 93c0 ea75 aebf
00000030: b872 62c0 7b13 2e40 c3c6 a9c0 707b 01c1

seq32_32.0.bn1.running_var f4 [16]
14.332305 12.383595 18.536074 34.536045 7.033763 18.158829 6.473376 32.305405
24.458559 27.472874 15.01797 12.934544 18.798962 5.454759 9.951188 10.215296
00000000: 1f51 6541 3523 4641 e149 9441 e924 0a42
00000010: 9614 e140 4845 9141 e525 cf40 bc38 0142
00000020: 21ab c341 72c8 db41 9b49 7041 e4f3 4e41
00000030: 4664 9641 638d ae40 1138 1f41 da71 2341

seq32_32.0.conv2.weight f4 [16, 16, 3, 3]
0.78319675 0.5382787 0.29071617 0.093900934 0.016129086 0.045456555 -0.34002492 0.16800883
-0.023654096 0.21735893 -0.37256113 -0.1309383 -0.24739873 -0.21455255 -0.10696054 -0.2050245
-0.14485379 0.3110049 0.033783294 -0.0025600484 -0.07131794 0.03703894 -0.011862595 -0.12846573
0.2406797 0.2933055 0.24035557 0.2479021 0.07038621 -0.21908845 -0.13087548 -0.15514135
-0.22720532 -0.27199295 -0.060694624 -0.076811805 0.121744014 0.12864423 0.16593519 -0.05879213
-0.06778744 -0.07247468 -0.058707844 -0.08558074 -0.15044492 -0.23591504 -0.42375487 -0.09167423
-0.2970624 -0.66475064 -0.08438419 -0.20679097 0.047399852 -0.3005666 -0.2395753 -0.07955514
-0.032742616 -0.05416823 -0.009130895 -0.12265573 -0.08755208 -0.17968766 -0.09121142 0.015687896
-0.051314343 -0.056063354 -0.00050787395 -0.0068790023 0.011909016 -0.08628244 -0.02589737 -0.06057221
-0.013637709 0.11914736 0.13708456 0.061502736 0.05950877 0.015052965 0.19580162 0.07090928
0.08232705 -0.4080956 -0.025934339 0.14450453 0.33427548 0.36483976 -0.061347548 0.18925688
0.10750691 -0.21522348 -0.052557312 0.60900426 -0.25401357 -0.162853 -0.40173385 0.25996584
0.08556991 0.010215728 0.26396564 0.068896055 0.8851002 -0.21623044 0.27113622 -1.3382249
0.4926039 0.3152941 0.5874622 -0.399439 1.3069696e-05 -0.4329151 -0.07056243 -0.001991473
0.6220442 -0.096753195 -0.1293887 0.56513494 0.15965538 -0.011158862 0.07023068 0.032296386
0.07854883 -0.1521741 -0.6863614 0.061307915 0.13059154 -0.17990589 -0.27242905 -0.24777302
0.16719887 -0.03989659 -0.32596755 -0.17612332 -0.011192334 -0.20054558 0.06894381 0.28734896
-0.40788293 -0.12140786 -0.041884467 0.11111638 0.25704208 0.30172464 0.06399194 0.12827824
0.06684602 -0.07156844 -0.107260115 0.19198911 0.090838544 0.04484444 0.12777534 0.07417305
0.088494845 -0.11388213 -0.05624375 -0.00523488 -0.12450668 -0.046922732 0.02889687 -0.20602441
-0.17181692 -0.04017461 -0.12716275 -0.14681445 -0.16741695 -0.12080795 -0.10630945 -0.19753183
-0.11261138 -0.09357366 -0.1563793 0.009226544 0.010612069 -0.0046982667 0.023487352 0.06165437
0.063602656 0.07929974 0.06493168 0.014851648 0.090136744 0.10674934 0.0473272 0.029100494
0.06365127 0.0018013755 -0.04880216 -0.05402105 -0.08760489 -0.06327655 -0.11487957 -0.10293261
0.065037385 0.07317396 0.047313455 0.125449 0.100883596 0.08172702 -0.044292897 -0.044119496
-0.031489417 -0.054610316 -0.076608524 -0.06188985 -0.06194796 -0.069718555 -0.07727679 -0.16604273
-0.13390775 -0.12204476 -0.14672758 -0.17656541 -0.1296252 -0.10895706 -0.13339846 -0.1199254
-0.07520272 -0.0028994041 -0.045451224 -0.04583512 -0.015082059 -0.03455486 -0.056208957 -0.006593502
0.0021201582 -0.09873113 -0.10851472 -0.12440342 -0.13342302 -0.13355766 -0.17599083 -0.08805673
-0.11948329 -0.1779499 -0.0064616655 -0.15241477 -0.08811609 0.105956286 0.03381585 -0.06036722
0.12953739 0.024617122 0.047928054 0.016191762 0.023165163 0.011047165 -0.02813852 0.11529399
0.12219989 0.12326146 0.015372466 0.08702378 -0.19920835 -0.2302213 -0.25676665 -0.25904256
00000000: 957f 483f a2cc 093f c0d8 943e 224f c03d
00000010: 2521 843c a730 3a3d bf17 aebe 820a 2c3e
00000020: 3cc6 c1bc 5793 5e3e 55c0 bebe b114 06be
00000030: 1856 7dbe aab3 5bbe 210e dbbd f1f1 51be
00000040: 8d54 14be 093c 9f3e 5a60 0a3d 7cc6 27bb
00000050: 240f 92bd 25b6 173d 545b 42bc 858c 03be
00000060: bd74 763e 232c 963e c51f 763e 0cda 7d3e
00000070: a526 903d b958 60be 3904 06be 60dd 1ebe
00000080: 83a8 68be a942 8bbe ed9a 78bd 824f 9dbd
00000090: ed54 f93d 50bb 033e eaea 293e 04d0 70bd
000000a0: 24d4 8abd 9b6d 94bd a377 70bd f444 afbd
000000b0: 3c0e 1abe b693 71be 66f6 d8be b3bf bbbd
000000c0: 9018 98be 192d 2abf 9ed1 acbd 03c1 53be
000000d0: 5926 423d dee3 99be 3a53 75be ceed a2bd
000000e0: 1f1d 06bd 82df 5dbd c099 15bc ed32 fbbd
000000f0: 814e b3bd 0b00 38be 0ecd babd e783 803c
00000100: fd2e 52bd b0a2 65bd d822 05ba 4169 e1bb
00000110: 091e 433c d9b4 b0bd b926 d4bc 911a 78bd
00000120: b370 5fbc 8803 f43d e55f 0c3e 4bea 7b3d
00000130: 78bf 733d b6a0 763c 3880 483e e238 913d
00000140: 169b a83d e8f1 d0be 4074 d4bc fff8 133e
00000150: 2826 ab3e 47cc ba3e 9147 7bbd 8ecc 413e
00000160: 952c dc3d 8b63 5cbe 5646 57bd b4e7 1b3f
00000170: 110e 82be f0c2 26be 0fb0 cdbe 3e1a 853e
00000180: 473f af3d de5f 273c 8126 873e 6019 8d3d
00000190: ed95 623f 836b 5dbe 5ed2 8a3e f44a abbf
000001a0: 9436 fc3e 3a6e a13e ec63 163f 4583 ccbe
000001b0: eb45 5b37 0ca7 ddbe 0983 90bd 5f83 02bb
000001c0: 4a3e 1f3f 8a26 c6bd 797e 04be afac 103f
000001d0: b37c 233e a9d3 36bc 1ad5 8f3d 3749 043d
000001e0: 35de a03d 87d3 1bbe 61b5 2fbf 021e 7b3d
000001f0: cab9 053e 4039 38be d27b 8bbe 36b8 7dbe
00000200: 2e36 2b3e 9b6a 23bd 38e5 a6be ac59 34be
00000210: 0d60 37bc d25b 4dbe 6a32 8d3d 671f 933e
00000220: 08d6 d0be afa4 f8bd 0c8f 2bbd fc90 e33d
00000230: 059b 833e a77b 9a3e 350e 833d 5f5b 033e
00000240: 91e6 883d 7992 92bd 31ab dbbd cb98 443e
00000250: 8f09 ba3d ceae 373d 8ad7 023e 0ae8 973d
00000260: c93c b53d 093b e9bd d95f 66bd 5b89 abbb
00000270: 5cfd febd 0d32 40bd 21b9 ec3c 10f8 52be
00000280: c6f0 2fbe 228e 24bd f436 02be 8756 16be
00000290: 596f 2bbe 296a f7bd c5b8 d9bd c945 4abe
000002a0: cca0 e6bd 8ca3 bfbd e521 20be ee2a 173c
000002b0: 3ede 2d3c ebf3 99bb 8c68 c03c 4b89 7c3d
000002c0: 1c42 823d e767 a23d e7fa 843d 5454 733c
000002d0: 9d99 b83d 669f da3d 2bda 413d 2964 ee3c
000002e0: 995b 823d 221c ec3a c6e4 47bd 2d45 5dbd
000002f0: 316a b3bd 2397 81bd fb45 ebbd 55ce d2bd
00000300: 5232 853d 3bdc 953d c1cb 413d b475 003e
00000310: 0f9c ce3d 7f60 a73d 786c 35bd a5b6 34bd
00000320: 0cfb 00bd 11af 5fbd eee4 9cbd 3680 7dbd
00000330: 25bd 7dbd 9ac8 8ebd 4b43 9ebd 1b07 2abe
00000340: 1d1f 09be 9af2 f9bd c13f 16be 90cd 34be
00000350: 78bc 04be e124 dfbd 9b99 08be 739b f5bd
00000360: e203 9abd ee03 3ebb 102b 3abd 9bbd 3bbd
00000370: be1a 77bc 6689 0dbd 5d3b 66bd 4e0e d8bb
00000380: 5af2 0a3b 8c33 cabd f73c debd 38c7 febd
00000390: 0ba0 08be 57c3 08be f136 34be 1657 b4bd
000003a0: a8b3 f4bd 8038 36be 61bc d3bb 9e12 1cbe
000003b0: 3576 b4bd 9cff d83d 7d82 0a3d 9e43 77bd
000003c0: 73a5 043e d9a9 c93c 3550 443d 96a4 843c
000003d0: dec4 bd3c 2bff 343c c182 e6bc 411f ec3d
000003e0: f043 fa3d 8170 fc3d ccdc 7b3c 8639 b23d
000003f0: 46fd 4bbe 22bf 6bbe eb76 83be 3aa1 84be

seq32_32.0.conv2.bias f4 [16]
0.0073016225 -0.03206468 -0.022991458 0.0037489245 0.036376636 -0.0047226474 -0.03560866 0.009602408
-0.006978903 -0.032326605 0.025515174 0.021992307 0.005455031 -0.025841726 -0.007980059 -0.01099148
00000000: 7342 ef3b 4156 03bd 9558 bcbc 84b0 753b
00000010: abff 143d 70c0 9abb 63da 11bd 6b53 1d3c
00000020: 48af e4bb e768 04bd 3305 d13c 3629 b43c
00000030: 1ec0 b23b 07b2 d3bc cbbe 02bc 9c15 34bc

seq32_32.0.bn2.weight f4 [16]
1.0139457 0.19102685 0.81172264 0.7756532 -0.42912424 0.8765905 0.6751467 1.3215967
1.6079042 0.5776822 1.3052192 -0.39871067 1.0005639 -0.080326766 0.9520652 0.6505952
00000000: f9c8 813f 8b9c 433e 0ecd 4f3f 3591 463f
00000010: 2cb6 dbbe 3c68 603f 6ad6 2c3f 152a a93f
00000020: cecf cd3f fbe2 133f 6c11 a73f ce23 ccbe
00000030: 7a12 803f 5c82 a4bd 8cba 733f 688d 263f

seq32_32.0.bn2.bias f4 [16]
0.83858424 0.5363659 -0.73598886 0.17236021 0.40765116 -0.655809 0.32408562 -0.047382567
-0.3082055 0.14368807 0.032652818 -0.106192306 -0.06816439 -0.17677152 0.07486211 0.28965482
00000000: 75ad 563f 474f 093f c469 3cbf 327f 303e
00000010: a7b7 d03e 19e3 27bf 8dee a53e 3914 42bd
00000020: 1ccd 9dbe f722 133e f6be 053d 5a7b d9bd
00000030: c699 8bbd 9803 35be 4e51 993d a34d 943e

seq32_32.0.bn2.running_mean f4 [16]
1.2104003 -0.7718029 0.650854 2.3115551 1.4580556 -0.69223684 -0.1468899 -0.1505439
3.6441543 -0.15220389 0.8869099 1.1329817 -0.6293538 -0.8977649 0.6195029 -1.6372705
00000000: 66ee 9a3f e094 45bf 5e9e 263f 85f0 1340
00000010: 91a1 ba3f 6f36 31bf 4e6a 16be 2e28 1abe
00000020: d339 6940 56db 1bbe 870c 633f 8b05 913f
00000030: 551d 21bf ecd3 65bf be97 1e3f 1492 d1bf

seq32_32.0.bn2.running_var f4 [16]
4.322609 3.8976326 2.5149515 5.781361 3.063907 2.295282 4.195212 5.0445786
5.120794 2.4144962 5.127066 3.0841532 2.3596065 0.42036167 3.4400482 2.7063465
00000000: d052 8a40 d072 7940 f7f4 2040 e900 b940
00000010: 0d17 4440 e6e5 1240 2d3f 8640 306d a140
00000020: 8bdd a340 1b87 1a40 ed10 a440 c462 4540
00000030: cb03 1740 a539 d73e c029 5c40 c834 2d40

seq32_32.1.conv1.weight f4 [16, 16, 3, 3]
0.21118212 0.26244307 -0.078868985 -0.1067882 0.41841725 0.42902082 -0.3306308 -0.55196965
0.04140329 0.101370975 -0.019984638 0.009480849 -0.049453255 -0.11081526 -0.08216814 -0.07481524
-0.06894795 -0.0534946 0.19208707 0.11395531 -0.121194564 0.16540942 0.40607345 0.31380627
0.080205806 0.24882132 0.01032417 0.041221045 -0.048202984 -0.09794383 0.18167673 0.117504895
0.22019969 0.06494731 0.025475455 0.025178537 -0.116570234 -0.07226305 -0.08700809 -0.09316846
-0.072494164 -0.10978494 0.10603967 0.11683041 0.06815825 0.11322647 0.17841199 0.09474243
-0.035473008 0.18086453 0.18830131 -0.17930765 -0.06692633 0.10674528 -0.1697921 -0.020206323
0.06514511 -0.21257861 -0.3164311 -0.26089695 0.21574539 0.22236565 0.0046979506 -0.012620231
-0.22426187 -0.48529717 0.18682659 0.20186295 0.16184534 0.16240202 0.28875175 0.27495304
-0.12941942 -0.1163604 -0.17957094 -0.10450472 -0.14013235 -0.1692687 0.024100227 -0.053314887
-0.0824283 0.059843943 0.16048524 -0.11380716 0.11107257 0.1820274 0.11800699 -0.10653245
-0.10684682 -0.08714536 0.06949435 0.02498066 0.018012036 0.07009164 0.044790417 0.054000605
-0.17462389 -0.14679803 -0.0017777239 -0.15689841 0.03593195 -0.039254382 0.1250879 0.096701905
0.15962297 -0.008448502 0.012292811 0.10583302 0.12609115 -0.017579373 -0.18631856 0.0182709
0.030526174 -0.038898025 -0.118562646 -0.1560288 -0.18091047 0.006567009 -0.016110994 -0.034368735
-0.040938217 -0.07664107 -0.101034805 -0.025802465 -0.04202441 0.01624056 -0.15541178 -0.21578002
-0.25461167 0.124205664 -0.009676944 -0.09621213 -0.009974132 0.069046505 0.11120256 0.06792945
0.17914468 0.12427908 -0.0010293816 -0.04390557 0.08410259 0.07441524 -0.08763543 -0.07467396
-0.0628257 0.02066325 -0.17280637 -0.031026702 0.062339306 0.024103427 -0.06482392 0.08847957
-0.03086704 0.009823926 0.17594498 0.18006411 0.04375057 0.14780118 0.16740431 0.028659584
0.08595042 0.029230436 -0.084275216 0.012102578 -0.03550176 -0.17733832 -0.09270905 -0.14244772
-0.15796863 0.015285782 -0.08523313 -0.16750847 -0.14687653 -0.19478652 -0.010999241 -0.00689209
-0.010001365 0.0029847566 0.025348855 0.056403365 0.09041856 0.11762746 0.023517027 0.09679073
0.05987592 0.07968553 -0.027453398 -0.017372249 -0.07928714 0.019654123 0.12385089 0.18092032
0.12236409 0.2224555 0.17442538 0.29442874 0.15983547 0.13826549 0.10326124 0.0997301
0.09675192 -0.035904735 -0.06519255 -0.04071119 -0.35872295 -0.33773062 -0.16182508 -0.006677125
0.080486745 0.08672279 0.04577534 0.08140354 0.09501148 0.002754869 -0.03259436 -0.13150166
0.2072733 0.17855169 0.21415187 0.06998179 0.10202407 0.18224394 -0.026968228 0.045075726
0.0789688 0.002317658 0.046161994 -0.012329155 0.050429247 0.16177674 0.077780366 -0.07166058
0.08420674 0.049957003 0.13925748 0.06805549 0.100716665 -0.01025063 0.12999943 0.21040395
-0.07769602 0.039912086 0.151271 0.24907213 0.29958367 -0.14280261 0.1577898 0.25605154
-0.029510692 0.08467087 0.15127642 -0.02089787 0.107523434 0.15130706 0.11619847 0.13982724
00000000: 2040 583e f05e 863e 1086 a1bd c6b3 dabd
00000010: c93a d63e 9ea8 db3e 7148 a9be e24d 0dbf
00000020: 7f96 293d 969b cf3d d3b6 a3bc 9055 1b3c
00000030: 7f8f 4abd 1cf3 e2bd c547 a8bd bc38 99bd
00000040: 9534 8dbd 271d 5bbd 79b2 443e 6761 e93d
00000050: db34 f8bd 1661 293e dce8 cf3e 37ab a03e
00000060: f142 a43d 04cb 7e3e b526 293c 66d7 283d
00000070: 7e70 45bd c696 c8bd 7709 3a3e 68a6 f03d
00000080: 077c 613e 1803 853d e7b1 d03c 3843 ce3c
00000090: 60bc eebd a6fe 93bd 4c31 b2bd 1bcf bebd
000000a0: d277 94bd edd6 e0bd 542b d93d c844 ef3d
000000b0: 8d96 8b3d 48e3 e73d a2b1 363e 5208 c23d
000000c0: 254c 11bd 8d34 393e 0fd2 403e 6d9c 37be
000000d0: ac10 89bd 459d da3d fbdd 2dbe bb87 a5bc
000000e0: cd6a 853d 35ae 59be 4203 a2be 4994 85be
000000f0: 5cec 5c3e d2b3 633e 44f1 993b 16c5 4ebc
00000100: e7a4 65be df78 f8be 784f 3f3e 29b5 4e3e
00000110: c9ba 253e b74c 263e 45d7 933e a5c6 8c3e
00000120: 8686 04be 5d4e eebd 72e1 37be 9206 d6bd
00000130: db7e 0fbe c654 2dbe d76d c53c b660 5abd
00000140: 2bd0 a8bd ec1e 753d 3e56 243e ba13 e9bd
00000150: 047a e33d 6465 3a3e a6ad f13d af2d dabd
00000160: 81d2 dabd 4479 b2bd 0e53 8e3d 3ea4 cc3c
00000170: fa8d 933c 358c 8f3d 2876 373d bd2f 5d3d
00000180: 9bd0 32be 3952 16be 8402 e9ba faa9 20be
00000190: 612d 133d 34c9 20bd 0b17 003e a60b c63d
000001a0: 3474 233e 966b 0abc c967 493c fbbe d83d
000001b0: 0a1e 013e 9e02 90bc 4bca 3ebe dbac 953c
000001c0: 0712 fa3c 8953 1fbd f9d0 f2bd 04c6 1fbe
000001d0: 9840 39be 1030 d73b 34fb 83bc 3bc6 0cbd
000001e0: d5ae 27bd fef5 9cbd 56eb cebd b15f d3bc
000001f0: ca21 2cbd ec0a 853c 4424 1fbe 70f5 5cbe
00000200: 765c 82be 8a5f fe3d 0c8c 1ebc dd0a c5bd
00000210: 8b6a 23bc 4168 8d3d 2bbe e33d 981e 8b3d
00000220: b471 373e 0886 fe3d 51ec 86ba 54d6 33bd
00000230: fb3d ac3d 0467 983d 347a b3bd a9ee 98bd
00000240: c3aa 80bd fa45 a93c 27f4 30be b62b febc
00000250: 8057 7f3d 8d74 c53c 67c2 84bd c734 b53d
00000260: e0dc fcbc 88f4 203c ec2a 343e ba62 383e
00000270: cc33 333d 3159 173e 096c 2b3e 81c7 ea3c
00000280: c606 b03d ab74 ef3c 7c98 acbd e449 463c
00000290: 4b6a 11bd 2d98 35be 3ede bdbd d1dd 11be
000002a0: 87c2 21be 3771 7a3c b58e aebd 5787 2bbe
000002b0: cd66 16be 1e76 47be 2936 34bc 0bd7 e1bb
000002c0: c4dc 23bc e89b 433b 67a8 cf3c 3707 673d
000002d0: 5e2d b93d aae6 f03d c8a6 c03c 383a c63d
000002e0: 7440 753d 2b32 a33d f3e5 e0bc 3f50 8ebc
000002f0: 4c61 a2bd af01 a13c 89a5 fd3d 2d43 393e
00000300: 069a fa3d 60cb 633e 919c 323e 5dbf 963e
00000310: e9ab 233e 7895 0d3e a17a d33d 4b3f cc3d
00000320: df25 c63d d810 13bd ac83 85bd c7c0 26bd
00000330: 89aa b7be 07eb acbe 79b5 25be c9cb dabb
00000340: 3cd6 a43d b89b b13d ec7e 3b3d e6b6 a63d
00000350: 6195 c23d 088b 343b aa81 05bd 5fa8 06be
00000360: 743f 543e 41d6 363e a14a 5b3e 9d52 8f3d
00000370: fff1 d03d 289e 3a3e 79ec dcbc 53a1 383d
00000380: 65ba a13d d9e3 173b 5c14 3d3d 3900 4abc
00000390: e68e 4e3d cda8 253e 504b 9f3d c8c2 92bd
000003a0: 9574 ac3d b79f 4c3d 8399 0e3e ad60 8b3d
000003b0: 8a44 ce3d 42f2 27bc 921e 053e 2274 573e
000003c0: 171f 9fbd db7a 233d c9e6 1a3e c40c 7f3e
000003d0: 0863 993e d93a 12be a693 213e 3019 833e
000003e0: 68c0 f1bc ec67 ad3d 35e8 1a3e 0332 abbc
000003f0: 3f35 dc3d 3df0 1a3e 77f9 ed3d df2e 0f3e

seq32_32.1.conv1.bias f4 [16]
0.029302003 5.7950263e-05 0.030783024 -0.00897324 0.00795123 -0.015620625 -0.006888689 -0.017432429
-0.009371701 0.012032121 0.011331125 0.018074267 -0.037439797 -0.020335205 0.030209478 -0.018872408
00000000: c10a f03c 9f0f 7338 ae2c fc3c 7f04 13bc
00000010: e045 023c a6ed 7fbc 83ba e1bb 74ce 8ebc
00000020: c38b 19bc 6022 453c 2fa6 393c 7c10 943c
00000030: 795a 19bd 0496 a6bc de79 f73c 4f9a 9abc

seq32_32.1.bn1.weight f4 [16]
0.8574317 0.6251043 1.1719607 0.3614616 0.90199304 1.2424841 0.8668192 1.3408852
0.658531 0.6450801 1.7751588 0.5736847 0.75994563 1.0777928 1.2051067 0.65785474
00000000: a580 5b3f d606 203f cf02 963f 7f11 b93e
00000010: 04e9 663f b809 9f3f dde7 5d3f 20a2 ab3f
00000020: 7d95 283f f823 253f 6738 e33f 00dd 123f
00000030: cc8b 423f 1df5 893f f040 9a3f 2b69 283f

seq32_32.1.bn1.bias f4 [16]
-0.22469482 -0.42757192 -0.7177567 -0.37630087 -0.6377648 0.18211581 -0.25558376 -0.33112633
-0.66922647 -0.38659626 0.9172267 0.10074466 0.59455687 -0.5606082 0.7491471 -0.21375687
00000000: 6616 66be b5ea dabe e7be 37bf 82aa c0be
00000010: 8e44 23bf 917c 3a3e e0db 82be 6489 a9be
00000020: 6d52 2bbf f2ef c5be 5ecf 6a3f 3753 ce3d
00000030: e134 183f 0584 0fbf 1bc8 3f3f 15e3 5abe

seq32_32.1.bn1.running_mean f4 [16]
1.5670455 3.2710524 -3.080545 -1.3460664 -1.5803994 -2.841017 -13.178398 -6.427095
7.137387 -9.794885 -6.7102118 8.289972 -1.4781508 -0.93628037 -4.0571713 -11.698986
00000000: f294 c83f ec58 5140 a627 45c0 e74b acbf
00000010: 874a cabf 39d3 35c0 b8da 52c1 c3aa cdc0
00000020: 7965 e440 d9b7 1cc1 0eba d6c0 baa3 0441
00000030: 0c34 bdbf 12b0 6fbf 59d4 81c0 0c2f 3bc1

seq32_32.1.bn1.running_var f4 [16]
14.413792 6.2225013 17.706707 9.91224 11.363668 26.988008 17.367706 55.219563
10.839235 7.6528087 71.71722 12.109857 21.15586 20.437716 55.480103 19.136745
00000000: e49e 6641 bb1e c740 56a7 8d41 8998 1e41
00000010: 96d1 3541 71e7 d741 10f1 8a41 d5e0 5c42
00000020: 826d 2d41 cfe3 f440 376f 8f42 f9c1 4141
00000030: 343f a941 7180 a341 a0eb 5d42 0e18 9941

seq32_32.1.conv2.weight f4 [16, 16, 3, 3]
-0.2746653 -0.09749499 0.25374335 -0.375616 -0.5326314 -0.24771342 -0.14562556 -0.34580493
-0.35504472 -0.014862181 0.0056085237 0.103274375 0.019718986 -0.0531482 -0.031752236 0.20937057
0.12942542 0.043923195 -0.20910434 -0.3471979 -0.1641659 0.021475298 -0.11056471 0.16707131
-0.22933438 0.12789007 0.18077043 -0.03676512 -0.046558324 -0.07016188 -0.14745079 -0.13982983
-0.09067115 -0.0052086446 0.041389037 0.045786224 -0.17792858 -0.21578734 -0.16754483 0.1205933
0.08213245 -0.04787142 0.06765203 0.12578085 0.03298002 0.027832324 -0.037195873 0.039995044
-0.21091096 -0.3558848 -0.06669271 -0.007258448 -0.1879558 0.1422373 0.09996295 0.17542452
0.31265116 0.019152816 0.2503847 0.23421422 -0.024703609 0.008969176 0.05294665 0.44165236
0.013083374 -0.49686703 -0.33085114 0.041066974 -0.11611881 -0.21152501 -0.05939661 -0.08113753
-0.1941734 0.09429774 0.23378822 -0.06379322 -0.050810322 -0.09374681 -0.03773056 0.0037875935
-0.07260085 -0.034922294 0.033075377 0.012882849 0.00031587895 0.07206152 0.1325377 -0.07665475
-0.09607205 0.08486819 0.09547358 -0.3693647 0.4164811 0.052545413 0.33369243 0.058202147
-0.30380693 -0.09856812 0.09575766 0.23965251 -0.1475327 -0.59645504 -0.18767478 -0.119753495
-0.4910114 -0.05567041 -0.27748796 -0.41967657 -0.46014345 -0.06964514 0.27719396 0.3870434
0.2715974 0.2644971 0.34230766 0.013982854 0.23840763 0.23290955 0.3532359 0.0080747735
-0.29498708 -0.28100812 -0.16435799 0.13211899 0.07176726 0.09478057 -0.2645314 -1.0139499
-0.5850267 -0.050910737 -0.13092306 0.054598827 -0.18750727 -0.1065565 -0.050353967 0.010248029
0.13381352 0.22845934 0.083909295 0.115527764 0.35287392 0.06384304 0.049802706 0.10239353
0.034698866 0.08362931 0.07304664 0.0027763867 0.06312384 0.09527049 -0.063970715 -0.13961215
-0.12524518 -0.093726 -0.038825724 -0.042138174 -0.07057704 0.113078095 0.06969289 0.07724367
0.13449505 0.15420187 -0.030357474 0.26743317 0.14848875 -0.21888591 0.10850968 0.50470936
0.096024774 -0.10639145 0.11251696 -0.100063406 0.039690938 -0.059556797 -0.11511955 -0.028419536
-0.008921976 -0.124469414 -0.10661087 -0.08683823 -0.03672364 0.063674934 0.016214795 -0.06465623
0.098216526 0.047608595 0.047073107 0.07857394 0.015576054 0.4157719 0.41108793 0.25001705
0.267251 0.38918778 0.313533 -0.10585807 0.07760922 0.21221846 0.2637503 0.09477342
-0.07651788 0.2646174 0.20540407 -0.018658128 0.26780927 0.090118654 0.0009703557 -0.021305336
0.2139175 -0.044688307 0.001042857 0.11599163 0.14826499 0.064431906 -0.15535356 -0.20735963
-0.10862005 -0.019869702 -0.018069519 -0.07744442 0.09494612 0.168416 -0.07603609 0.08901971
0.12611444 0.18918356 0.06365195 0.08873012 0.118105836 0.028737197 0.054102324 0.0209493
-0.014912509 0.12212741 -0.44411442 0.10722112 0.43417928 -0.26820946 -0.5225763 0.75777435
0.2215539 -0.19589505 -0.38097903 0.022424491 -0.09422395 -0.075302295 0.16507491 0.11549314
-0.20210066 0.11342914 0.10318368 -0.067938305 0.060853634 0.05221179 -0.045698553 -0.15031973
00000000: eea0 8cbe 74ab c7bd a6ea 813e be50 c0be
00000010: 885a 08bf 96a8 7dbe de1e 15be 580d b1be
00000020: 6cc8 b5be 8180 73bc b5c7 b73b 8481 d33d
00000030: b689 a13c edb1 59bd a20e 02bd 3d65 563e
00000040: 1988 043e cfe8 333d 731f 56be ecc3 b1be
00000050: 1b1b 28be f7ec af3c c06f e2bd be14 2b3e
00000060: a2d6 6abe 9df5 023e e21b 393e 0697 16bd
00000070: f1b3 3ebd 08b1 8fbd 57fd 16be 8d2f 0fbe
00000080: ccb1 b9bd 47ad aabb 8d87 293d 568a 3b3d
00000090: e932 36be 5bf7 5cbe df90 2bbe 9ff9 f63d
000000a0: 0f35 a83d d214 44bd 268d 8a3d b2cc 003e
000000b0: 0f16 073d 9d00 e43c b35a 18bd d8d1 233d
000000c0: 0bf9 57be 8836 b6be 3096 88bd 46d8 edbb
000000d0: 7c77 40be a8a6 113e 60b9 cc3d 7ca2 333e
000000e0: d013 a03e 5ee6 9c3c 6c32 803e dad5 6f3e
000000f0: 395f cabc 73f3 123c 96de 583d 4220 e23e
00000100: a65b 563c 5b65 febe 5265 a9be d835 283d
00000110: b3cf edbd 039a 58be dc49 73bd 6f2b a6bd
00000120: 64d5 46be 2c1f c13d 2e66 6f3e 05a6 82bd
00000130: 7c1e 50bd 54fe bfbd 5c8b 1abd 4639 783b
00000140: c1af 94bd ae0a 0fbd 0c7a 073d 9612 533c
00000150: 8e9c a539 fd94 933d f6b7 073e 2afd 9cbd
00000160: 6cc1 c4bd 60cf ad3d a787 c33d 5f1d bdbe
00000170: 033d d53e dc39 573d bcd9 aa3e 6065 6e3d
00000180: 958c 9bbe 15de c9bd 981c c43d 7867 753e
00000190: d012 17be 47b1 18bf d12d 40be 5241 f5bd
000001a0: d965 fbbe a806 64bd e712 8ebe d9df d6be
000001b0: ec97 ebbe 1ca2 8ebd 5eec 8d3e 8d2a c63e
000001c0: d00e 8b3e 2a6c 873e f342 af3e 5718 653c
000001d0: 2121 743e d77f 6e3e 56db b43e 0e4c 043c
000001e0: 8c08 97be 4ce0 8fbe 764d 28be 334a 073e
000001f0: b7fa 923d 511c c23d a970 87be 1cc9 81bf
00000200: 4fc4 15bf c787 50bd b210 06be 05a3 5f3d
00000210: e801 40be 4b3a dabd f63f 4ebd 59e7 273c
00000220: 6906 093e 3ff1 693e a3d8 ab3d d299 ec3d
00000230: e4ab b43e 24c0 823d ecfd 4b3d b3b3 d13d
00000240: 6620 0e3d d845 ab3d 7a99 953d 0af4 353b
00000250: 1247 813d 2d1d c33d 1403 83bd 7df6 0ebe
00000260: 4640 00be 6bf3 bfbd b907 1fbd 1499 2cbd
00000270: b28a 90bd 7d95 e73d 25bb 8e3d ee31 9e3d
00000280: 12b9 093e 18e7 1d3e 3db0 f8bc 00ed 883e
00000290: 6f0d 183e a123 60be 533a de3d a234 013f
000002a0: a3a8 c43d c3e3 d9bd 4b6f e63d 0bee ccbd
000002b0: f792 223d d4f1 73bd ccc3 ebbd 16d0 e8bc
000002c0: 7b2d 12bc d2e9 febd cd56 dabd 3ed8 b1bd
000002d0: 876b 16bd 0168 823d e4d4 843c 7c6a 84bd
000002e0: bf25 c93d 3b01 433d bbcf 403d 60eb a03d
000002f0: b532 7f3c 0ee0 d43e 1e7a d23e 3c02 803e
00000300: 20d5 883e 9f43 c73e 6687 a03e 1ecc d8bd
00000310: 95f1 9e3d cc4f 593e 480a 873e 9118 c23d
00000320: 68b5 9cbd ef7b 873e 7255 523e eed8 98bc
00000330: 4c1e 893e 2190 b83d 785f 7e3a 8788 aebc
00000340: 300d 5b3e 160b 37bd 79b0 883a 058d ed3d
00000350: c7d2 173e e0f4 833d 0115 1fbe 1556 54be
00000360: 3074 debd c9c5 a2bc 8706 94bc 2e9b 9ebd
00000370: 1d73 c23d 3e75 2c3e cfb8 9bbd f74f b63d
00000380: 2524 013e 56b9 413e f45b 823d 23b8 b53d
00000390: 79e1 f13d 456a eb3c 669a 5d3d de9d ab3c
000003a0: 9953 74bc ef1d fa3d f762 e3be bf96 db3d
000003b0: bf4c de3e c052 89be 8fc7 05bf 80fd 413f
000003c0: 07df 623e b698 48be af0f c3be 91b3 b73c
000003d0: 7cf8 c0bd 1738 9abd 6609 293e ab87 ec3d
000003e0: 7af3 4ebe 894d e83d f751 d33d 3d23 8bbd
000003f0: a941 793d 08dc 553d 682e 3bbd 6aed 19be

seq32_32.1.conv2.bias f4 [16]
-0.028192569 -0.021136783 -0.006185021 -0.0078074886 -0.02415288 0.014021202 -0.020103112 0.028763294
-0.0078014443 0.0073801978 0.023952378 0.030937275 0.0036793537 0.0022575988 -0.010589203 -0.0030406052
00000000: 1af4 e6bc 0c27 adbc b7ab cabb f6d5 ffbb
00000010: 43dc c5bc 2fb9 653c 48af a4bc 00a1 eb3c
00000020: 42a3 ffbb 96d5 f13b c737 c43c 2b70 fd3c
00000030: 5021 713b 39f4 133b 567e 2dbc e444 47bb

seq32_32.1.bn2.weight f4 [16]
1.2568115 0.6024575 2.058788 0.50071394 0.1726468 0.61603165 1.6063868 1.6521765
0.9980588 0.9791681 0.9132744 2.2965424 0.7216923 1.0190141 1.0848786 0.06458437
00000000: 33df a03f a83a 1a3f 2fc3 0340 ca2e 003f
00000010: 53ca 303e 40b4 1d3f 159e cd3f 857a d33f
00000020: c880 7f3f c3aa 7a3f 5acc 693f 8dfa 1240
00000030: d4c0 383f 0e6f 823f 4ddd 8a3f cf44 843d

seq32_32.1.bn2.bias f4 [16]
0.23250747 0.4209104 -0.42623863 0.25036857 0.073804356 0.030121133 -0.16509043 -0.12488793
-0.12097495 -0.47249767 0.14200433 -1.3403243 0.60606647 0.108041584 -0.37717798 -0.027457125
00000000: 7016 6e3e 9181 d73e f33b dabe 4f30 803e
00000010: bd26 973d 98c0 f63c 770d 29be 3ec5 ffbd
00000020: b7c1 f7bd 37eb f1be 9569 113e bf8f abbf
00000030: 2c27 1b3f e844 dd3d 791d c1be c4ed e0bc

seq32_32.1.bn2.running_mean f4 [16]
-2.196189 0.83454764 0.04662855 3.1830492 0.28556344 0.41205198 -2.4764297 0.16215996
0.6363478 -2.6316407 -0.53167826 1.1369792 0.45544136 1.3177445 0.16615742 -1.3839294
00000000: 5c8e 0cc0 eaa4 553f 94fd 3e3d 14b7 4b40
00000010: 5f35 923e 7af8 d23e d37d 1ec0 430d 263e
00000020: b0e7 223f cd6c 28c0 111c 08bf 8988 913f
00000030: 9c2f e93e daab a83f 2c25 2a3e 9924 b1bf

seq32_32.1.bn2.running_var f4 [16]
3.7453666 4.255327 9.7314005 2.689753 1.4225156 1.7271872 5.249026 8.476115
2.2866333 3.3139799 4.2920938 21.123629 2.520769 1.966695 3.3542218 1.5210209
00000000: 16b4 6f40 a42b 8840 d1b3 1b41 ea24 2c40
00000010: fe14 b63f 7814 dd3f 05f8 a740 2b9e 0741
00000020: 3358 1240 3f18 5440 d558 8940 31fd a841
00000030: 4754 2140 a9bc fb3f 92ab 5640 d0b0 c23f

seq16_16.0.conv1.weight f4 [32, 16, 3, 3]
-0.102216765 -0.19495039 0.15932871 0.4402468 -0.06615137 -0.4805944 -0.32536286 0.48247755
0.4772392 0.22308534 0.25711063 -0.04759633 -0.21598929 0.15250802 0.2656017 -0.19959705
-0.4570582 -0.32112947 -0.2784577 -0.34395662 -0.20389195 -0.22419167 -0.2506367 -0.35979515
0.060558964 -0.18319274 -0.16990831 -0.009537677 0.038597215 0.080632836 0.06323838 0.1148356
0.07714149 -0.15435383 -0.1374582 -0.07162865 0.05822489 0.11633896 0.15334187 -0.03986397
0.05746615 0.14181429 -0.14324579 -0.16230336 -0.09971935 0.012305063 0.19091947 0.06006511
0.09788872 0.1779884 0.1545807 0.17598948 0.24506955 0.080916815 -0.08739742 -0.19151205
-0.0627329 0.022965694 0.081977405 -0.27520394 0.08390513 -0.49208236 -0.3325542 -0.008573255
-0.057164818 -0.16475262 -0.027686743 -0.1797005 -0.064585924 0.069931984 0.09750543 -0.09435011
-0.007813581 0.012687405 -0.047000762 -0.089699484 -0.08835643 -0.044889197 -0.28645417 -0.2771155
-0.202491 0.14407417 -0.18850645 -0.15893666 0.49828956 0.56085336 -0.0849243 -0.25673333
0.38642254 0.76602566 0.020770626 -0.02644606 0.07101909 0.031160373 0.0034986022 -0.14933379
0.17495698 0.17505312 0.027874086 -0.061314102 -0.17304733 -0.07390344 -0.24743357 -0.041537706
-0.17571415 -0.012602997 -0.05182699 0.15197161 0.12785707 -0.12814687 -0.11287274 0.2362362
0.14695378 -0.14906733 -0.006605074 0.00053768273 -0.08542362 0.09474965 0.19810562 -0.036237378
0.0412996 0.09810857 0.14416093 -0.050776202 -0.037792098 -0.05106312 -0.15982965 0.14872305
0.1984831 0.0431244 -0.13015553 0.26784027 0.04586282 0.40544435 0.23437652 0.14530045
-0.16165882 -0.18327174 0.08815184 0.16893654 -0.08715725 0.0039767777 -0.1288899 0.11989969
0.39662975 0.037504464 -0.417784 0.3928609 -0.7739327 -0.23418751 -0.7170143 -0.26133123
0.41360715 -0.090552054 -0.23261866 -0.1234769 -0.094213106 -0.07616924 0.15559167 -0.27295142
0.12710139 0.35398293 0.52537066 0.8171313 0.12877011 0.9040916 0.11898363 0.1272508
0.117806196 0.1593971 0.5999466 -0.006084421 -0.14034888 0.14741968 -0.23277183 -0.3741129
0.17732395 -0.35893065 -0.02093443 0.3358063 -0.25757897 -0.17115243 0.076964825 -0.2923718
-0.0032181356 0.2770693 -0.09989368 0.09869751 0.14453946 0.06840785 -0.056127846 -0.026678521
-0.06524694 -0.22460863 -0.1079983 0.009836232 -0.10359457 0.074250676 -0.40008187 -0.36911914
0.47004682 -0.6767862 0.40275565 0.8496756 0.6290887 0.7696526 -0.5779339 0.04315308
0.22352697 -0.19375797 0.16350834 -0.15404284 0.013478997 -0.011149321 0.1597505 0.14437951
-0.11486979 -0.124037884 -0.067047514 -0.1904235 -0.20482354 -0.10045557 -0.024350666 0.04076153
0.13642651 0.01815739 -0.18785621 -0.083901435 0.16217609 -0.07869707 -0.07311341 0.05766975
0.20986202 -0.15603979 0.001659419 -0.05700449 0.029495446 0.11195279 0.0038846505 0.07867631
0.041742373 0.14253442 0.0019646042 0.22348274 -0.27630904 -0.047566798 -0.10040281 0.003534601
0.29387516 -0.2716413 0.38676003 0.0003152337 0.18767035 -0.052834515 -0.19989803 0.046549134
00000000: 0657 d1bd 13a1 47be 1127 233e 0768 e13e
00000010: 5f7a 87bd 7810 f6be f695 a6be 4c07 f73e
00000020: b258 f43e 7c70 643e 01a4 833e 5ff4 42bd
00000030: 4c2c 5dbe 102b 1c3e f2fc 873e 2b63 4cbe
00000040: 8803 eabe 156b a4be 0292 8ebe 151b b0be
00000050: 0dc9 50be 8092 65be 7453 80be 1237 b8be
00000060: ad0c 783d e196 3bbe 72fc 2dbe eb43 1cbc
00000070: 1d18 1e3d d422 a53d 2083 813d ed2e eb3d
00000080: 5cfc 9d3d ee0e 1ebe d8c1 0cbe 0bb2 92bd
00000090: 397d 6e3d 1f43 ee3d a705 1d3e 6748 23bd
000000a0: a061 6b3d c437 113e 06af 12be da32 26be
000000b0: a939 ccbd 2d9b 493c 6580 433e d506 763d
000000c0: e279 c83d 9742 363e 674a 1e3e 9636 343e
000000d0: 83f3 7a3e b7b7 a53d 6bfd b2bd bc1b 44be
000000e0: 1b7a 80bd 8d22 bc3c c5e3 a73d 88e7 8cbe
000000f0: 74d6 ab3d 38f2 fbbe 8b44 aabe d676 0cbc
00000100: a825 6abd e9b4 28be 4fcf e2bc 6803 38be
00000110: a045 84bd 8038 8f3d edb0 c73d a13a c1bd
00000120: 8904 00bc d5de 4f3c df83 40bd 5db4 b7bd
00000130: 37f4 b4bd bcdd 37bd 1faa 92be 15e2 8dbe
00000140: cd59 4fbe 2e88 133e d607 41be 4bc0 22be
00000150: cf1f ff3e 1694 0f3f cbec adbd 8d72 83be
00000160: 2dd9 c53e 421a 443f 2927 aa3c 68a5 d8bc
00000170: 7572 913d 0a44 ff3c ce48 653b f5ea 18be
00000180: ec27 333e 2041 333e 3258 e43c 7f24 7bbd
00000190: 5233 31be b05a 97bd 3a5f 7dbe 7123 2abd
000001a0: 69ee 33be cd7c 4ebc 8a48 54bd 729e 1b3e
000001b0: f7ec 023e ef38 03be d329 e7bd e7e7 713e
000001c0: 0d7b 163e 1ba5 18be 606f d8bb 47f3 0c3a
000001d0: 94f2 aebd 1b0c c23d 33dc 4a3e a56d 14bd
000001e0: c529 293d 25ed c83d ec9e 133e b5fa 4fbd
000001f0: e3cb 1abd 9027 51bd 62aa 23be db4a 183e
00000200: 273f 4b3e 36a3 303d 7e47 05be 5c22 893e
00000210: a7da 3b3d 6796 cf3e 6600 703e a4c9 143e
00000220: e489 25be 96ab 3bbe f488 b43d b3fd 2c3e
00000230: 807f b2bd a14f 823b b7fb 03be f88d f53d
00000240: 0e13 cb3e 489e 193d c9e7 d5be 1025 c93e
00000250: 7420 46bf dace 6fbe 408e 37bf 35cd 85be
00000260: 51c4 d33e 5b73 b9bd 9633 6ebe 75e1 fcbd
00000270: cdf2 c0bd 9efe 9bbd 6c53 1f3e 4ac0 8bbe
00000280: de26 023e 403d b53e b17e 063f 842f 513f
00000290: 50dc 033e 8c72 673f b0ad f33d 094e 023e
000002a0: 6044 f13d fe38 233e 1a96 193f d35f c7bb
000002b0: 9eb7 0fbe 2ff5 163e bd5b 6ebe ba8b bfbe
000002c0: 6994 353e c2c5 b7be af7e abbc ceee ab3e
000002d0: 64e1 83be 9542 2fbe bc9f 9d3d c2b1 95be
000002e0: 5be7 52bb 07dc 8d3e 0f95 ccbd ec21 ca3d
000002f0: 2702 143e 6a19 8c3d 50e6 65bd ea8c dabc
00000300: 30a0 85bd ceff 65be 362e ddbd 2628 213c
00000310: 6429 d4bd bd10 983d 88d7 ccbe 2ffd bcbe
00000320: faa9 f03e dc41 2dbf fd35 ce3e 5784 593f
00000330: f50b 213f f407 453f 7af3 13bf 49c1 303d
00000340: 41e4 643e 7d68 46be bb6e 273e 68bd 1dbe
00000350: 03d7 5c3c a4ab 36bc a395 233e 39d8 133e
00000360: da40 ebbd 9307 febd 3550 89bd 61fe 42be
00000370: 43bd 51be a6bb cdbd 0c7b c7bc 90f5 263d
00000380: 64b3 0b3e cfbe 943c 615d 40be 84d4 abbd
00000390: 7d11 263e ee2b a1bd 7cbc 95bd 1e37 6c3d
000003a0: 12e6 563e e5c8 1fbe dd80 d93a 8a7d 69bd
000003b0: 6fa0 f13c 8147 e53d 9f95 7e3b 0c21 a13d
000003c0: 0dfa 2a3d 8bf4 113e 97c0 003b a9d8 643e
000003d0: 6178 8dbe 67d5 42bd fd9f cdbd c4a4 673b
000003e0: ce76 963e 9214 8bbe 6905 c63e f345 a539
000003f0: a82c 403e 0169 58bd 12b2 4cbe 4eaa 3e3d

seq16_16.0.conv1.bias f4 [32]
-0.0063771936 -0.027580116 -0.0082317665 0.0013654808 -0.015720667 0.013173452 -0.0058845147 -0.002975917
-0.014130512 0.020988178 -0.03462321 -0.0028087092 0.003738567 0.0068371473 -0.0025979914 -0.03641169
0.010408644 0.010288669 0.022345426 -0.032677602 0.004688762 0.028866546 0.037811425 0.0020386304
0.007138588 -0.037263423 0.020293225 0.015828352 -0.015550609 -0.0032735874 0.014844418 0.024018716
00000000: c7f7 d0bb b2ef e1bc 88de 06bc eff9 b23a
00000010: a1c8 80bc 76d5 573c e3d2 c0bb 9a07 43bb
00000020: aa83 67bc 66ef ab3c 11d1 0dbd 5212 38bb
00000030: bf02 753b 260a e03b 1043 2abb 6d24 15bd
00000040: 0489 2a3c ce91 283c c10d b73c f3d8 05bd
00000050: 30a4 993b 8979 ec3c 27e0 1a3d 8b9a 053b
00000060: d1ea e93b 88a1 18bd fa3d a63c 76aa 813c
00000070: fbc7 7ebc af89 56bb 0036 733c e6c2 c43c
