models/test.pt (torch, 740723 bytes, 90 tensors)

conv1.weight f4 [16, 3, 3, 3]
0	0x3e618db2	0.22026709
1	0xbe205067	-0.15655671
2	0xbcccfef3	-0.025023913
3	0x3d05d5ce	0.032674603
4	0xbd67e587	-0.05661538
5	0x3ded8362	0.11597325
6	0xbc02d6a3	-0.007985744
7	0xbe9610bb	-0.2930964
8	0xbe01b0c0	-0.12665081
9	0x3eeb6ba9	0.45980576
10	0x3e932990	0.28742647
11	0x3ea07a1f	0.3134317
12	0x3e5700a7	0.20996343
13	0x3dfca3ef	0.12335955
14	0x3e48dedf	0.19616269
15	0x3ea5dcb1	0.32394937
16	0xbd2305d8	-0.039800495
17	0xbe153b81	-0.1457348
18	0xbe1a7d7e	-0.15086934
19	0xbe0d97de	-0.13827464
20	0xbd9e9132	-0.077425376
21	0xbed3cbe0	-0.41366482
22	0xbf0f70d0	-0.56031513
23	0xbe488868	-0.19583285
24	0xbe396119	-0.18103446
25	0xbf16d6b5	-0.58921367
26	0xbe9a4b10	-0.30135393
27	0x3f36a725	0.7134879
28	0x3f6b30ff	0.9187164
29	0x3ed1426a	0.40870982
30	0xbe466e1a	-0.19377938
31	0xbde4e460	-0.111763716
32	0xbe9fc7cb	-0.31207117
33	0xbe9dbc1b	-0.30807576
34	0xbf224478	-0.63385725
35	0xbf15f180	-0.58571625
36	0x3d552e6d	0.05204623
37	0x3f1f0e3a	0.62131083
38	0x3da92452	0.08258881
39	0xbef3f770	-0.47649717
40	0xbd56a53d	-0.052403677
41	0xbe9961b2	-0.29957348
42	0xbe84e742	-0.25957686
43	0xbed73eea	-0.42040187
44	0xbedef015	-0.43542543
45	0xbe4c6dcc	-0.19963759
46	0x3ed45b56	0.41475934
47	0x3dfda593	0.123850964
48	0xbf034203	-0.512726
49	0x3e7c81d8	0.24658906
50	0x3e311956	0.17294821
51	0xbd799808	-0.060936004
52	0xbd2d0c9d	-0.042248357
53	0xbd2bc9c9	-0.041940484
54	0x3daf51ca	0.08560522
55	0x3d064f95	0.03279074
56	0x3f23769a	0.63852847
57	0x3ec1b433	0.37832794
58	0xbec5714a	-0.38562995
59	0xbf5a4b96	-0.85271585
60	0xbe291249	-0.16510881
61	0x3f178cc0	0.5919914
62	0xbe356636	-0.17714772
63	0x3eaf1d01	0.34201816
64	0xbe86cce8	-0.26328206
65	0x3e176557	0.14784752
66	0x3f2a7835	0.6658967
67	0xbeb22e4e	-0.34800953
68	0xbfa0db76	-1.2566974
69	0x3dacb9ba	0.08433862
70	0x3f311565	0.6917327
71	0xbec2e9b0	-0.38068914
72	0x3db6462d	0.08900104
73	0xbdbf68ca	-0.09346159
74	0x3df83cbb	0.121209584
75	0x3f03fd54	0.51558423
76	0xbee9f148	-0.45691895
77	0xbf7f58fb	-0.9974515
78	0x3e069252	0.13141754
79	0x3f3a2e7c	0.7272718
80	0xbea6626a	-0.3249696
81	0x3e296a5f	0.16544484
82	0xbd275d5f	-0.04086053
83	0x3b2c6c5f	0.0026309711
84	0xbd9d4ca4	-0.07680634
85	0xbed347a5	-0.41265598
86	0xbedba851	-0.42901853
87	0x3dbf68a5	0.09346131
88	0x3d1743be	0.03692984
89	0xbe11d414	-0.14241058
90	0xbd390bd1	-0.045177285
91	0x3c821f7d	0.015884155
92	0xbdc9c0ee	-0.098512515
93	0xbe936b0b	-0.28792605
94	0xbede462e	-0.43412918
95	0xbeb438ec	-0.35199678
96	0xbdb07e38	-0.08617824
97	0x3c4167b1	0.011804507
98	0x3d97e659	0.07416982
99	0x3e37b504	0.17940146
100	0x3e65e7e4	0.2245174
101	0x3e3e5f9c	0.1859116
102	0xbd1f1790	-0.03884083
103	0x3b201be4	0.0024430687
104	0xbe0b418c	-0.13599223
105	0x3df0e633	0.11762657
106	0x3dde243b	0.10846754
107	0xbddd330d	-0.10800753
108	0x3e3e954b	0.18611638
109	0xbf67241c	-0.90289474
110	0xbef1202c	-0.47094858
111	0xbe1c7f70	-0.15282989
112	0x3d9fc98c	0.07802114
113	0xbe209a38	-0.1568383
114	0xbe924b00	-0.28572845
115	0x3fab06d9	1.3361465
116	0x3e9781cb	0.29591212
117	0x3decce42	0.11562778
118	0xbee57ce1	-0.44821838
119	0x3d0d9566	0.034566306
120	0xbe73d815	-0.23812898
121	0x3ec75b05	0.3893663
122	0x3ebd2b8e	0.36947292
123	0xbf46b1e5	-0.77615196
124	0x3f9a7b0c	1.2068801
125	0x3e6c26f7	0.23061739
126	0x3ee0f8ce	0.43939823
127	0xbecd2698	-0.40068507
128	0x3d28f926	0.04125323
129	0xbe4ce9bb	-0.20011036
130	0x3e146c43	0.14494424
131	0xbdd347b5	-0.103164114
132	0xbf027fa9	-0.50976044
133	0x3ee9941c	0.4562081
134	0xbe197944	-0.14987665
135	0x3e847575	0.25870863
136	0xbcf9c6e7	-0.030490352
137	0x3dfcc37e	0.12341975
138	0x3dcfc0b3	0.10144176
139	0xbecbd279	-0.39809015
140	0xbc81731c	-0.015801959
141	0x3b632621	0.0034660178
142	0x3d617135	0.055039603
143	0x3e35de37	0.1776055
144	0xbcb2e831	-0.021839233
145	0xbd91cad7	-0.07118767
146	0xbe50782e	-0.20358345
147	0xbe41c059	-0.18921031
148	0xbf086136	-0.5327333
149	0xbeda6b48	-0.42659974
150	0x3c949e01	0.018141748
151	0xbe8861a3	-0.2663699
152	0x3d4fc2d4	0.050722912
153	0xbdc50429	-0.09619934
154	0xbdd64dae	-0.10464035
155	0xbdbefc0d	-0.093254186
156	0xbd972c02	-0.07381441
157	0xbe49f179	-0.19721021
158	0xbe693c6a	-0.22776952
159	0x3de6125c	0.112339705
160	0xbdc98568	-0.09839898
161	0xbd579788	-0.052634746
162	0x3e7309c5	0.23734196
163	0x3ea2383f	0.31683537
164	0x3e9ee741	0.31035808
165	0x3f308887	0.68958324
166	0x3ea555c5	0.32292
167	0x3dcfe9c4	0.10152009
168	0x3dbfc386	0.09363465
169	0xbf045ada	-0.5170113
170	0xbe8ede64	-0.27904046
171	0x3d8d0360	0.06885409
172	0xbefaeb7c	-0.49007785
173	0xbed849b9	-0.42243746
174	0x3f50e503	0.81599444
175	0xbef69cf6	-0.48166627
176	0xbf491b10	-0.7855692
177	0x3e021a41	0.12705328
178	0xbedffb46	-0.43746394
179	0xbed71d01	-0.42014316
180	0x3e4c9f47	0.19982634
181	0xbd445792	-0.047935076
182	0xbeabfaa2	-0.33589655
183	0x3f886352	1.065531
184	0xbda22758	-0.079176605
185	0xbf2daf35	-0.6784547
186	0x3f740d5d	0.9533289
187	0xbddd5b5d	-0.10808442
188	0xbdf0a30d	-0.117498495
189	0xbe8930f3	-0.26795158
190	0xbe95baab	-0.2924398
191	0xbe1a1b2d	-0.15049429
192	0xbe978a68	-0.29597783
193	0xbef3066f	-0.47465846
194	0xbea9ee9c	-0.33189857
195	0xbf1dbcc6	-0.6161617
196	0xbf48f06d	-0.7849186
197	0xbf2a5e85	-0.66550475
198	0xbe4987d6	-0.19680724
199	0xbe30d591	-0.17268969
200	0xbe330579	-0.17482556
201	0x3e300399	0.17188872
202	0x3e671b9b	0.22569124
203	0xbd736531	-0.059422676
204	0xbd4aadfd	-0.049482334
205	0x3e12499a	0.1428589
206	0xbeb2047f	-0.34769055
207	0x3d69a59d	0.057042707
208	0x3df65171	0.120272525
209	0xbe25d12a	-0.16193071
210	0x3f457270	0.7712774
211	0x3f951107	1.1645821
212	0x3f05b8db	0.5223519
213	0x3f0c7047	0.5485882
214	0x3f7734f8	0.965652
215	0x3ebea3db	0.37234387
216	0xbeb14eae	-0.3463034
217	0x3ddaa6e5	0.10676364
218	0xbecca6b4	-0.39970934
219	0x3d1ead9a	0.038739778
220	0x3f0cb647	0.54965633
221	0x3ea7ee0d	0.32798806
222	0x3e1aac16	0.15104708
223	0xbed38d6b	-0.4131883
224	0xbb862e68	-0.0040948875
225	0xbd41636a	-0.04721395
226	0x3f03fd0a	0.5155798
227	0x3d58bb98	0.05291328
228	0x3d5c7625	0.05382361
229	0x3f391b8a	0.72307646
230	0x3e76b088	0.24090779
231	0xbe92304b	-0.2855247
232	0xbf3d572e	-0.7396115
233	0xbefb310e	-0.49060863
234	0xbcc31cca	-0.023817439
235	0x3f0a6527	0.54060596
236	0x3e08e280	0.13367653
237	0xbd855efd	-0.06512258
238	0x3f184b7e	0.5949019
239	0x3e847f4c	0.2587837
240	0xbdea77c7	-0.11448627
241	0xbf245ba6	-0.64202344
242	0xbf01cecd	-0.5070618
243	0xbf691cf7	-0.9105982
244	0xbf1b03ef	-0.6055288
245	0xbf298074	-0.6621163
246	0xbe7f8b35	-0.24955447
247	0x3d7ee3cf	0.062228974
248	0xbe3dcbc1	-0.18534757
249	0x3f5f1553	0.87141913
250	0x3f90e2ee	1.1319253
251	0x3f3a4176	0.72756135
252	0x3dcd14a2	0.10013701
253	0x3f431503	0.76203936
254	0x3dbd4a54	0.092426926
255	0xbf207712	-0.62681687

conv1.bias f4 [16]
0	0x3d73f8a4	0.059563294
1	0x3e014309	0.12623228
2	0x3dc26513	0.094919346
3	0x3e15e12b	0.14636676
4	0x3d5fe031	0.054657165
5	0xbd9297bf	-0.071578495
6	0xbda92467	-0.08258896
7	0xbe206b9e	-0.15666053
8	0x3d384f98	0.04499778
9	0xbc03b655	-0.008039077
10	0x3e0801c2	0.1328192
11	0xbd418fe3	-0.04725636
12	0xbd7ded8b	-0.061994117
13	0xbd95900c	-0.073028654
14	0x3cddff00	0.027099133
15	0x3e1061f1	0.14099862

bn1.weight f4 [16]
0	0x3f7c1f53	0.98485297
1	0x3f6f6acc	0.93522334
2	0x3f9939f8	1.1970816
3	0x3f6f761e	0.9353961
4	0x3f716e5c	0.9430902
5	0x3f6985bf	0.91219705
6	0x3f5f8c3f	0.87323374
7	0x3f374c97	0.7160124
8	0x3f5b7af1	0.8573447
9	0x3faa8440	1.332161
10	0x3f803623	1.0016521
11	0x3f8e74e4	1.1129422
12	0x3f4745d8	0.7784095
13	0x3f76c6cf	0.9639711
14	0x3f30d3dd	0.6907328
15	0x3f3f04c9	0.74616677

bn1.bias f4 [16]
0	0xbf0044d2	-0.5010501
1	0x3e076bc8	0.13224709
2	0x3f43e5ba	0.7652241
3	0xbf254140	-0.6455269
4	0x3f754121	0.95802504
5	0xbe363ca4	-0.1779657
6	0x3ee07419	0.43838575
7	0x3e6130aa	0.2199122
8	0x3f2c041c	0.6719377
9	0x3e1cf06a	0.15326086
10	0x3ed1488e	0.40875667
11	0x3f5cdde9	0.8627611
12	0x3d5416f9	0.05177972
13	0x3f1a69d6	0.6031774
14	0x3d5de849	0.054176603
15	0xbe8487cf	-0.25884864

bn1.running_mean f4 [16]
0	0x3ec6a269	0.38795784
1	0x3e82035e	0.25393194
2	0x3e4a3011	0.19744898
3	0x3eb62192	0.35572487
4	0x3cbd1622	0.023081843
5	0x3eaf934b	0.34292063
6	0xbdacd51c	-0.08439085
7	0xbf0d7ce9	-0.5526872
8	0xbcbd90d8	-0.023140356
9	0x3d047ff6	0.032348596
10	0x3da4e6d4	0.080518395
11	0x3df765c6	0.120799586
12	0xbdafdf30	-0.085874915
13	0xbe0fe4cf	-0.14052127
14	0xbeb4dc19	-0.3532417
15	0xbe1d8dcf	-0.15386127

bn1.running_var f4 [16]
0	0x3f2bccd5	0.67109424
1	0x3fde08aa	1.7346394
2	0x3fb560ac	1.4170127
3	0x3f4e3d30	0.80562115
4	0x3f524be7	0.8214707
5	0x3fafccc9	1.373437
6	0x3fea831d	1.8321263
7	0x3fd6dd73	1.6786331
8	0x3f59d8d0	0.85096455
9	0x3f13cafd	0.5773161
10	0x400e8a53	2.2271926
11	0x3fb058f6	1.3777149
12	0x3f6c7eec	0.9238117
13	0x3fa36a82	1.2766879
14	0x3f8a63c7	1.08117
15	0x3f32961e	0.6976031

seq32_32.0.conv1.weight f4 [16, 16, 3, 3]
0	0xbe05d0b8	-0.13067901
1	0xbdf37830	-0.11888158
2	0xbdc27bd2	-0.09496273
3	0xbd413543	-0.047169935
4	0xbdb91c77	-0.09038632
5	0xbdec5673	-0.115399264
6	0xbd830b01	-0.06398583
7	0xbd3c18ab	-0.045921963
8	0x3d116d77	0.035504784
9	0x3d930da0	0.07180333
10	0x3e033013	0.12811308
11	0x3d7de9ed	0.061990667
12	0xbd5238d4	-0.051323727
13	0x3c9fabe5	0.019491145
14	0xbcd90dbd	-0.026495809
15	0xbd93a249	-0.07208688
16	0x3d5385dd	0.051641334
17	0xbd0179a2	-0.03161014
18	0x3de422d6	0.11139457
19	0x3ddb3331	0.10703123
20	0x3e24b7a3	0.16085677
21	0xbc609960	-0.013708442
22	0x3dd3f9c6	0.10350375
23	0x3dba83a1	0.091071375
24	0xbd9b2702	-0.075757995
25	0x3d6d3e8a	0.05792097
26	0x3d3cedc0	0.046125174
27	0x3d5debc5	0.054179925
28	0x3d1c0d8e	0.038098864
29	0x3d1562bf	0.036471125
30	0x3d624b39	0.05524752
31	0x3c4d3930	0.012525842
32	0x3c95ecd6	0.018301409
33	0x3c0d247b	0.008614655
34	0xbd1ae9a2	-0.037820466
35	0x3dc8f163	0.09811666
36	0xbe9f4403	-0.31106576
37	0xbe704ede	-0.23467585
38	0xbe44dafa	-0.19224158
39	0xbe4ff7c8	-0.20309365
40	0xbde536c5	-0.11192087
41	0xbe79e671	-0.24404313
42	0xbe8a2da2	-0.2698794
43	0xbe828266	-0.2549011
44	0xbe7348db	-0.23758261
45	0xbd820d91	-0.06350244
46	0xbdbec1cc	-0.093143076
47	0xbd72521e	-0.059160344
48	0xbde6091c	-0.11232206
49	0xbd30be02	-0.043149956
50	0xbd7c18de	-0.061547153
51	0xbd81b3e9	-0.06333143
52	0xbd714dce	-0.05891209
53	0xbd81686b	-0.06318744
54	0x3d0398d0	0.032128155
55	0xbb90893d	-0.0044108913
56	0xbdc8e980	-0.098101616
57	0xbdb07af3	-0.08617201
58	0xbd627d54	-0.055295303
59	0xbd5c998a	-0.053857364
60	0xbdc97e9c	-0.09838602
61	0xbcdce032	-0.026962373
62	0xbd3e1c36	-0.046413623
63	0xbdd7603e	-0.105164036
64	0xbe15e92f	-0.14639734
65	0xbdb4917a	-0.0881681
66	0x3d9e0113	0.07715049
67	0x3df5d109	0.12002761
68	0x3e32a54a	0.17445865
69	0x3e1d07ec	0.15335053
70	0x3e276713	0.16347913
71	0x3e16619b	0.14685671
72	0x3b9528d9	0.0045519886
73	0xbdb75566	-0.08951835
74	0xbdade5a9	-0.0849107
75	0xbd4775c5	-0.0486963
76	0x3d1a0e11	0.03761107
77	0x3c9797ed	0.018505061
78	0xbc9042d7	-0.017609997
79	0x3dfe7817	0.12425249
80	0x3dd043e8	0.10169202
81	0xbdd427fd	-0.1035919
82	0xbe257fbd	-0.1616201
83	0xbe25edb4	-0.16203958
84	0xbe017d29	-0.12645401
85	0xbe3236b4	-0.1740368
86	0xbd821cf9	-0.06353182
87	0xbd6d5418	-0.057941526
88	0xbc33b3bd	-0.010968146
89	0x3d2ea48e	0.0426374
90	0xbe12a14d	-0.14319344
91	0xbdf3f7cc	-0.11912498
92	0xbdb7349b	-0.089455806
93	0xbd182cce	-0.037152104
94	0xbe00d6ea	-0.12581983
95	0xbd71ea7e	-0.05906152
96	0xbda4a13e	-0.08038567
97	0xbda83edc	-0.082151145
98	0xbde86e44	-0.113491565
99	0xbd37841a	-0.044803716
100	0x3da27c17	0.079338245
101	0xbcccad0d	-0.02498486
102	0xbdfc68ce	-0.123246774
103	0xbc9a0288	-0.018800035
104	0xbdea68ae	-0.11445747
105	0xbe12789b	-0.1430382
106	0xbd76d88f	-0.06026512
107	0xbe2878c2	-0.16452315
108	0x3d7e69b5	0.06211253
109	0x3d0002d7	0.03125271
110	0xbd3af301	-0.045641903
111	0xbd780db0	-0.06055993
112	0xbdaecd9d	-0.08535311
113	0xbd08deb1	-0.0334155
114	0xbc1c258c	-0.009530436
115	0xbd0d0cb8	-0.034435958
116	0xbd5b5ef2	-0.053557344
117	0xbe37767d	-0.17916293
118	0xbe75148c	-0.2393362
119	0xbe65416a	-0.22388235
120	0xbe1dee6e	-0.15422985
121	0xbe39dc66	-0.18150482
122	0xbdc3d541	-0.09562159
123	0xbdf3fd9f	-0.11913609
124	0xbd514ab9	-0.05109665
125	0xbdc33186	-0.0953093
126	0xbe49a246	-0.19690809
127	0xbdf55447	-0.11978965
128	0xbe0bcf4e	-0.13653299
129	0xbdfc8404	-0.123298675
130	0xbd8205d2	-0.063487664
131	0xbd3a4b2f	-0.045481857
132	0xbdabd7d3	-0.083907746
133	0xbd81885d	-0.06324837
134	0x3c34e4b3	0.011040854
135	0x3ce1b7e3	0.027553504
136	0x3ce18254	0.027527966
137	0x3e18496d	0.1487176
138	0x3dc86f29	0.09786827
139	0x3d8eb1d4	0.06967512
140	0x3cf3f558	0.029780075
141	0xbca20f99	-0.019782828
142	0x3c9b05ec	0.018923722
143	0x3d7e1a3c	0.062036738
144	0x3d55edad	0.05222862
145	0x3db6bcb5	0.08922712
146	0x3e153341	0.14570333
147	0xbd96381d	-0.073349215
148	0x3bf8f9f4	0.007598156
149	0x3d2563e7	0.040378477
150	0xbdf0161e	-0.117229685
151	0xbd9b290c	-0.075761884
152	0xbe173382	-0.14765742
153	0xbe4d4d0f	-0.20048927
154	0xbe622812	-0.22085598
155	0xbe413c80	-0.18870735
156	0xbe562c27	-0.2091528
157	0xbcb78b6d	-0.02240535
158	0xbdea5032	-0.11441077
159	0x3d5f9da6	0.054593705
160	0x3e4595f6	0.19295487
161	0x3cdd0f40	0.02698481
162	0xbe026826	-0.12735042
163	0x3db7985a	0.08964606
164	0xbcd13af7	-0.025540812
165	0xbd012520	-0.031529546
166	0x3e566cd5	0.20939954
167	0x3e4de4ac	0.20106763
168	0x3b3a00a4	0.002838173
169	0x3d9fe68b	0.078076445
170	0x3e04e532	0.12978056
171	0xbdce14b2	-0.10062541
172	0xbdda736b	-0.106665455
173	0xbd94df56	-0.072691604
174	0x3b5a4e23	0.0033310733
175	0xbd7bf807	-0.061515834
176	0xbda66568	-0.081248105
177	0xbcb61b3e	-0.022229787
178	0xbd7c21ac	-0.06155555
179	0x3c6c43e6	0.014420485
180	0xbcae08fe	-0.021244522
181	0x3c1730cb	0.009227942
182	0xbda5f2dd	-0.08102963
183	0xbd00e1ef	-0.031465467
184	0x3d27255d	0.040807117
185	0xbe220d80	-0.15825462
186	0xbd453181	-0.048142914
187	0xbe62c338	-0.22144783
188	0xbe97ee86	-0.29674166
189	0x3dbd88a9	0.092545815
190	0x3da5b01b	0.0809023
191	0x3b4824df	0.0030539555
192	0x3e08bf4d	0.13354225
193	0x3e0a8026	0.13525447
194	0x3dcdc9fb	0.1004829
195	0x3d3b4b8d	0.045726348
196	0xbd921363	-0.07132604
197	0xbd5ef485	-0.05443241
198	0x3d4816c5	0.04884984
199	0x3e507607	0.20357524
200	0x3e6e927a	0.23298064
201	0x3c729a22	0.014807256
202	0x3e9aa879	0.3020666
203	0x3e91df0c	0.28490484
204	0xbd636102	-0.055512436
205	0x3e464d1f	0.19365357
206	0x3e69f8c2	0.228488
207	0x3d784357	0.060611095
208	0x3d89033a	0.066900685
209	0xbdab2378	-0.083563745
210	0x3c3794d5	0.011204918
211	0x3d5724eb	0.052525442
212	0xbe1fdb83	-0.15611081
213	0xbcc07b1c	-0.023496203
214	0x3d955ea5	0.07293443
215	0xbde38647	-0.11109596
216	0x3d28e384	0.0412326
217	0x3d7d12e0	0.06178558
218	0x3d6e20e5	0.05813684
219	0xbe5ed962	-0.21762612
220	0xbe3a74c5	-0.18208607
221	0xbea05af3	-0.3131939
222	0xbdf19ef6	-0.117978975
223	0xbe4493cc	-0.19197005
224	0xbe8ec55a	-0.27884942
225	0x3e856723	0.2605525
226	0x3eb5f860	0.35541058
227	0x3ed421fe	0.41432184
228	0xbd4755bb	-0.048665743
229	0x3df1e15d	0.11810563
230	0x3dd4a20c	0.103824705
231	0xbe9a4ce9	-0.30136803
232	0xbe863520	-0.26212406
233	0xbec559de	-0.38545126
234	0xbd27a53a	-0.040929057
235	0x3df0a2b0	0.1174978
236	0x3d798ac9	0.06092337
237	0x3e2ca96d	0.16861506
238	0x3ecdddc7	0.40208265
239	0x3e8fdcdf	0.280982
240	0x3e932ab1	0.28743508
241	0x3ea0b219	0.31385878
242	0x3e6c8e83	0.23101239
243	0xbe4a9edd	-0.19787164
244	0xbde54c9b	-0.11196252
245	0xbe6f9b21	-0.2339902
246	0x3e5ff9d7	0.2187265
247	0x3e99a4fc	0.30008686
248	0x3e909211	0.2823644
249	0x3e40b595	0.18819268
250	0x3ece86f0	0.40337324
251	0x3ebe731b	0.37197194
252	0xbdfd5208	-0.12369162
253	0xbdaacf58	-0.08340329
254	0xbc9ab24a	-0.018883843
255	0xbdd7c556	-0.10535686

seq32_32.0.conv1.bias f4 [16]
0	0xbae4e748	-0.0017463947
1	0x3d31e0fb	0.04342745
2	0xbd1b100e	-0.037857108
3	0x3c854fc2	0.016273383
4	0xbcddfe99	-0.02709894
5	0x3cac102d	0.021003807
6	0xbd186023	-0.037201058
7	0xbd49bdad	-0.049253155
8	0xbbdb80e9	-0.006698717
9	0xba7efc18	-0.0009726896
10	0x3ca216fa	0.019786347
11	0xbcc5b4bd	-0.024134034
12	0xbd671994	-0.056420878
13	0xbbe7f2f6	-0.0070785237
14	0x3cf07ff3	0.029357886
15	0x3d6ee2f0	0.058321893

seq32_32.0.bn1.weight f4 [16]
0	0x3f3cf9f7	0.73818916
1	0x3f63863c	0.888767
2	0x3f23cbe1	0.6398297
3	0x3f41c620	0.7569294
4	0x3f33bdd9	0.7021156
5	0x3f45916a	0.7717501
6	0x3fb8ae55	1.4428202
7	0x3f222f88	0.63353777
8	0x3f5b5843	0.8568155
9	0x3f95664e	1.1671846
10	0x3f9f9ab5	1.2469088
11	0x3f8da88d	1.1067063
12	0x3f6ed496	0.9329313
13	0x3f59851e	0.84968746
14	0x3f3fb40d	0.7488411
15	0x3ff0ddbb	1.8817667

seq32_32.0.bn1.bias f4 [16]
0	0xbf052e4e	-0.5202378
1	0xbf168fc9	-0.5881315
2	0xbe193cb5	-0.14964564
3	0xbe43cd2b	-0.19121234
4	0xbebd5d0a	-0.36985046
5	0x3d254a31	0.040353958
6	0x3ef54f1a	0.47911912
7	0xbd5bc3de	-0.05365359
8	0xbf08b218	-0.5339675
9	0xbd9e03dd	-0.077155806
10	0x3f42272b	0.75841016
11	0xbddca182	-0.10772993
12	0xbd54dd18	-0.051968664
13	0xbeeb8749	-0.46001652
14	0xbe9ea962	-0.30988604
15	0xbdfbd227	-0.12295943

seq32_32.0.bn1.running_mean f4 [16]
0	0xc08afa38	-4.3430443
1	0x3f4c55c1	0.7981835
2	0xbf057c27	-0.52142566
3	0xbe914717	-0.2837455
4	0xc02442d5	-2.566579
5	0xc02220f7	-2.533262
6	0xc08ca5dd	-4.395247
7	0xbfe3cad9	-1.7796279
8	0x405e0980	3.4693298
9	0xc0093086	-2.1435866
10	0xbe23c7e8	-0.15994227
11	0xbf6df854	-0.92957044
12	0xc0128152	-2.289143
13	0x40545de5	3.3182309
14	0xc077e8ae	-3.8735766
15	0xbf57f159	-0.8435264

seq32_32.0.bn1.running_var f4 [16]
0	0x4048588b	3.1304042
1	0x4089617f	4.2931514
2	0x40c3d6fb	6.1199927
3	0x408b1091	4.3457723
4	0x401dd951	2.466389
5	0x4089535b	4.291425
6	0x411a1044	9.628971
7	0x40325d6b	2.7869518
8	0x408c5468	4.3853035
9	0x41035ca0	8.210114
10	0x40972128	4.7227974
11	0x40bb0a58	5.8450127
12	0x40d11596	6.533885
13	0x409f47f6	4.9775343
14	0x406c705c	3.6943579
15	0x420c3966	35.056053

seq32_32.0.conv2.weight f4 [16, 16, 3, 3]
0	0xbd31dd09	-0.043423686
1	0x3c99cc32	0.018774126
2	0xbdcd0614	-0.10010925
3	0xbd0dbf31	-0.034606162
4	0xbddcd645	-0.10783056
5	0x3a1a9725	0.0005897156
6	0xbc84788a	-0.016170759
7	0x3d93d19e	0.07217716
8	0x3d22433e	0.03961491
9	0xbe001b1c	-0.12510341
10	0xbd0aee5b	-0.03391872
11	0xbdea3063	-0.1143501
12	0x3d1f576f	0.038901743
13	0x3d28ad82	0.041181095
14	0xbd9a4564	-0.075327665
15	0x3e59a4aa	0.2125422
16	0x3e5519b7	0.2081059
17	0x3bff0147	0.0077821347
18	0x3db2d903	0.08732798
19	0xbc7a63a4	-0.015282545
20	0x3ca95c05	0.020673761
21	0x3e072f20	0.1320157
22	0x3db85bd8	0.09001893
23	0x3d619061	0.05506933
24	0x3e2520eb	0.16125838
25	0xbddda4c1	-0.1082244
26	0xbdacce37	-0.0843777
27	0xbe32a7d3	-0.17446832
28	0xbe058279	-0.13038053
29	0xbe17e260	-0.14832449
30	0xbdb4ec1b	-0.08834096
31	0xbdc00286	-0.09375481
32	0xbe1aab01	-0.15104295
33	0xbd8e347f	-0.069436066
34	0xbd5e31ca	-0.0542467
35	0xbd2fd01b	-0.042923074
36	0x3ccd140c	0.025033973
37	0xbd9146d4	-0.070935875
38	0xbda7dde3	-0.081966184
39	0x3d599deb	0.053129118
40	0xbc9ff9b7	-0.019528253
41	0xbdc94d12	-0.09829153
42	0x3d72e918	0.059304327
43	0xbc3a9d1d	-0.011389998
44	0x3b32be6f	0.0027274152
45	0xbe165c67	-0.14683686
46	0xbd730afb	-0.059336644
47	0xbd8abb82	-0.067740455
48	0xbb9ceb80	-0.004788816
49	0x3ce03c90	0.027372628
50	0x3be5d762	0.007014201
51	0xbde59fd1	-0.11212123
52	0xbb1bbdbe	-0.0023764218
53	0x3dba7785	0.09104828
54	0xbdd8af40	-0.10580301
55	0xbe842b58	-0.2581432
56	0xbd5d5bc0	-0.054042578
57	0x3db36bdc	0.08760807
58	0x3d5eb06d	0.05436747
59	0x3c5eea4d	0.013605666
60	0x3b276b0b	0.002554598
61	0xbebdd0a3	-0.3707324
62	0xbe7e42fa	-0.24830237
63	0xbdf12fa9	-0.117766686
64	0x3ca1d028	0.019752577
65	0xbbdbe2d1	-0.006710388
66	0xbd0ad51d	-0.033894647
67	0x3cb9d497	0.022684379
68	0xbd9b11d6	-0.07571761
69	0xbd94b402	-0.07260896
70	0xbdeb231c	-0.11481306
71	0xbdd30222	-0.10303141
72	0xbdb89d72	-0.09014405
73	0xbd15ce68	-0.036573797
74	0x3d132691	0.03592545
75	0xbd21bea6	-0.039488457
76	0xbd7c9f5e	-0.061675422
77	0xbced8e41	-0.028998496
78	0xbd6cbf4f	-0.057799634
79	0xbd20f172	-0.03929276
80	0x3c267c55	0.010161479
81	0xbdde2df7	-0.10848611
82	0x3d8250e1	0.06363083
83	0x3e1feee3	0.15618472
84	0xbe0c36cf	-0.13692783
85	0xbcfe57e1	-0.031047763
86	0xbcd41d8e	-0.025892999
87	0xbe2fc924	-0.17166573
88	0xbe2c7462	-0.16841272
89	0xbdad6158	-0.084658325
90	0x3ddb6e89	0.10714442
91	0x3dc2ae3a	0.09505887
92	0x3d574379	0.05255458
93	0x3de1c1f8	0.11023325
94	0x3d690702	0.05689145
95	0xbd5fdc36	-0.05465337
96	0x3dc99bf2	0.09844197
97	0x3e7cf3bb	0.24702351
98	0x3d48a505	0.0489855
99	0xbe71d98f	-0.23618148
100	0xbd8ea7ee	-0.06965624
101	0x3de78de2	0.11306359
102	0xbe46ff83	-0.19433407
103	0xbd9e967a	-0.07743545
104	0x3d29bc46	0.041439317
105	0xbdf32454	-0.118721634
106	0x3c1b5dc3	0.009482804
107	0x3e3160e0	0.17322111
108	0xbda85b82	-0.08220579
109	0xbdd356d4	-0.103192955
110	0xbe087839	-0.13327111
111	0xbc5a2c30	-0.013316199
112	0xbdf082e2	-0.11743714
113	0xbe12e591	-0.14345385
114	0xbb4d934d	-0.0031368316
115	0xbdb614e1	-0.08890701
116	0xbe3ecd7c	-0.18633074
117	0x3bf14b1c	0.00736369
118	0x3c56f6fd	0.01312041
119	0xbc8bec6a	-0.017080504
120	0x3e00d348	0.12580597
121	0x3d8c3b47	0.06847244
122	0x3e3ac455	0.18238957
123	0xbd3df4b6	-0.046375953
124	0xbcb0286e	-0.021503653
125	0xbc8566c6	-0.016284358
126	0xbd9df353	-0.07712426
127	0x3e07a7b1	0.13247563
128	0x3db264c7	0.08710628
129	0x3c17b132	0.009258555
130	0x3dd74d6c	0.10512814
131	0x3e1f89b9	0.15579881
132	0xbc867215	-0.01641182
133	0x3df269e7	0.118366055
134	0x3e314d3b	0.17314617
135	0xbe02163c	-0.12703794
136	0xbdedf914	-0.116197735
137	0xbd7457ed	-0.059654165
138	0xbe80cd29	-0.25156525
139	0xbecd683a	-0.4011858
140	0xbea849c0	-0.32868767
141	0xbd72fd9d	-0.059323896
142	0xbe6665c6	-0.22499761
143	0xbe6d50d6	-0.23175368
144	0xbd3e6016	-0.046478353
145	0xbde3303d	-0.11093185
146	0xbe064302	-0.13111499
147	0xbda78d3b	-0.081812344
148	0xbdc0a772	-0.09406938
149	0xbdb62bb5	-0.08895055
150	0x3e203cd3	0.15648203
151	0x3d8a1486	0.06742196
152	0x3d3fb2f2	0.046801515
153	0x3e5a0208	0.21289837
154	0x3df1d400	0.11808014
155	0x3e360cb0	0.17778277
156	0x3e0303aa	0.12794366
157	0x3df07456	0.11740939
158	0xbc188266	-0.009308433
159	0xbda9ac3c	-0.08284804
160	0xbdff72d4	-0.124730736
161	0xbdb46b7c	-0.088095635
162	0xbc8011a8	-0.01563342
163	0x3e725e1e	0.23668715
164	0x3e634d53	0.22197466
165	0x3d7fc684	0.06244518
166	0x3d81393a	0.06309743
167	0x3cc91b5f	0.024549184
168	0xba543930	-0.000809568
169	0xbb35d978	-0.002774803
170	0xbd820f0c	-0.06350526
171	0xbe4f7dc7	-0.20262824
172	0xbe00b82c	-0.12570256
173	0xbdc6fc59	-0.097161
174	0xbd7e2fc8	-0.062057287
175	0xbe1a9618	-0.15096319
176	0xbd86f234	-0.06589165
177	0x3d79d343	0.06099249
178	0x3e08c847	0.1335765
179	0x3cfa2501	0.030535223
180	0x3c281c38	0.010260634
181	0xbc8dc589	-0.017306106
182	0x3c801420	0.015634596
183	0xbc9d2814	-0.01918415
184	0x3d439b36	0.047755443
185	0x3da77362	0.081763044
186	0xbd5f9f34	-0.054595187
187	0x3daf5bdd	0.085624434
188	0x3d7e1569	0.062032137
189	0xbdb1609f	-0.08661007
190	0xbe65b7c8	-0.22433388
191	0xbd81bf6e	-0.063353404
192	0xbcc60377	-0.024171574
193	0x3da2435f	0.07923006
194	0x3dc4f78d	0.09617529
195	0x3e0d4c75	0.13798697
196	0x3e3924db	0.18080465
197	0xbb9a0bca	-0.0047011124
198	0xbd9f1884	-0.07768348
199	0x3ec44e35	0.38340917
200	0x3d241977	0.040063348
201	0xbe173fbe	-0.1477041
202	0xbc114b70	-0.008868083
203	0x3e04f500	0.12984085
204	0x3dc5f6c4	0.096662074
205	0xbef14ec3	-0.47130403
206	0xbcab2d23	-0.020895546
207	0x3d119e9d	0.035551656
208	0x3daa2244	0.08307317
209	0xbd1f9e04	-0.038969055
210	0xbdfce9bd	-0.123492695
211	0xbe3c714e	-0.18402597
212	0xbb9be464	-0.004757451
213	0xbd92095d	-0.07130692
214	0xbdfced51	-0.12349952
215	0xbc108ce4	-0.008822653
216	0xbdd67b4b	-0.10472735
217	0xbdec5b41	-0.11540843
218	0xbdcf134b	-0.10111102
219	0xbd26532c	-0.040606663
220	0xbc28808a	-0.010284552
221	0x3d132745	0.035926122
222	0xbd25682f	-0.04038256
223	0x3dc90d67	0.098170094
224	0x3ce31658	0.027720615
225	0x3e09fa79	0.13474454
226	0xbe7c36fa	-0.24630347
227	0xbdaa5e29	-0.08318741
228	0x3e705e56	0.23473486
229	0x3e7d2372	0.24720553
230	0x3e5c11ad	0.21491118
231	0xbddb2ae4	-0.1070154
232	0x3e8e0533	0.27738342
233	0x3eb45a84	0.35225308
234	0xbcdfac98	-0.027303979
235	0xbeed1241	-0.4630299
236	0x3e82c913	0.25544032
237	0x3d10df8e	0.03536945
238	0x3e17bd73	0.14818363
239	0xbe0079b8	-0.12546432
240	0xbe409853	-0.18808107
241	0x3e6a378e	0.22872755
242	0xbeb3227b	-0.34987244
243	0x3c43955d	0.011937466
244	0xbeb208ce	-0.34772342
245	0xbe468bb1	-0.19389226
246	0x3eb8589e	0.3600511
247	0x3e4a8dba	0.19780627
248	0xbd080d0f	-0.03321558
249	0x3d03485c	0.03205143
250	0x3ea2a43e	0.31765932
251	0x3e6a8187	0.22900973
252	0xbdccd58b	-0.100016676
253	0xbe15e161	-0.14636756
254	0xbd62462e	-0.05524271
255	0x3cbdbdf8	0.023161873

seq32_32.0.conv2.bias f4 [16]
0	0x3d131285	0.035906333
1	0xbc88840d	-0.01666453
2	0x3d561f37	0.052275863
3	0x3d595434	0.053058818
4	0xbd817670	-0.06321418
5	0xbca95116	-0.020668548
6	0xbcbf921f	-0.023385106
7	0x3d64dceb	0.055874746
8	0xbb9c7165	-0.00477426
9	0xbc24972c	-0.010045808
10	0xbd13a69b	-0.03604756
11	0xbd23f9d6	-0.040033184
12	0x3d0c1a02	0.03420449
13	0xbd5a5fde	-0.053314082
14	0xbd1a7df6	-0.037717782
15	0xbd49fb30	-0.049311817

seq32_32.0.bn2.weight f4 [16]
0	0x3f85afc9	1.044427
1	0x3f8288e7	1.0198029
2	0x3ffddbe0	1.9832726
3	0x3f637a16	0.88858163
4	0x3f8e1c37	1.110236
5	0x3f827f43	1.0195087
6	0x3f92175d	1.141338
7	0x3f123ef8	0.5712733
8	0x3fbbb78b	1.4665388
9	0x3f3d2b3e	0.7389411
10	0x3f8d7688	1.1051798
11	0x3f8abf5c	1.0839648
12	0x3f8f4c70	1.1195202
13	0x3f163c63	0.5868589
14	0x3f121769	0.5706697
15	0x3f9196b0	1.1374111

seq32_32.0.bn2.bias f4 [16]
0	0x3ec3e5a1	0.3826113
1	0x3e76da83	0.24106793
2	0xbee789b5	-0.4522225
3	0x3e4b9ef1	0.1988485
4	0xbe279310	-0.16364694
5	0xbd22dff6	-0.039764367
6	0xbecf6cec	-0.40512788
7	0x3eb6a9f3	0.35676536
8	0x3ee0f26f	0.43934962
9	0xbda2f125	-0.07956151
10	0xbf261163	-0.6487028
11	0x3e99ec18	0.30062938
12	0xbe845f56	-0.25853986
13	0x3d8f8a58	0.07008809
14	0xbc7a1aae	-0.01526515
15	0x3ed376dd	0.41301623

seq32_32.0.bn2.running_mean f4 [16]
0	0xbfb010e5	-1.3755156
1	0xbe05107f	-0.12994574
2	0x3f4733c7	0.7781338
3	0xbe0e5aa1	-0.1390176
4	0x3d781158	0.060563415
5	0x3f9fc046	1.2480552
6	0xbe52e748	-0.2059604
7	0xbfa476cb	-1.2848753
8	0xbfb7bd68	-1.4354677
9	0xbfa72366	-1.3057678
10	0xbe67d1ed	-0.22638674
11	0x3e6d81e8	0.23194087
12	0x3ea0b9c1	0.3139172
13	0xbfa2da53	-1.2722877
14	0xbf59a97f	-0.85024256
15	0xbf932489	-1.1495525

seq32_32.0.bn2.running_var f4 [16]
0	0x40105c1e	2.2556224
1	0x402e235a	2.7209077
2	0x40e8fc1e	7.280776
3	0x400c4e9e	2.1922984
4	0x405c80c6	3.4453597
5	0x406bf79e	3.6869884
6	0x401e00cc	2.4687986
7	0x405e92ef	3.477718
8	0x405edc0a	3.48218
9	0x3fd5c37f	1.6700286
10	0x4058f506	3.389955
11	0x404f3289	3.2374594
12	0x4035a10b	2.8379543
13	0x402e3000	2.7216797
14	0x40804e2c	4.0095425
15	0x402b9656	2.6810508

seq32_32.1.conv1.weight f4 [16, 16, 3, 3]
0	0x3d250694	0.040289477
1	0x3c7bece8	0.015376307
2	0x3c0cf32d	0.0086028995
3	0x3ced6332	0.028977964
4	0x3cb94cf3	0.0226197
5	0x3d4600b2	0.048340507
6	0x3ca45347	0.020059241
7	0x3d081334	0.03322144
8	0xbdcc9c7c	-0.099907845
9	0x3d87f516	0.06638543
10	0x3c14ffb7	0.00909417
11	0xbcbe3022	-0.02321631
12	0x3dc562cb	0.09637984
13	0x3e1de263	0.15418391
14	0x3d91aeba	0.071134046
15	0xbcde7c2d	-0.027158821
16	0x3da81ab7	0.082082205
17	0x3e81f608	0.2538302
18	0x3d223ea6	0.039610527
19	0xbd5d59a8	-0.05404058
20	0xbe73ebd7	-0.23820435
21	0xbdc74b43	-0.09731152
22	0xbe5f6771	-0.21816804
23	0xbeb0e7bc	-0.345518
24	0xbc65af93	-0.014018911
25	0xbe82929c	-0.2550248
26	0xbdfb36b3	-0.122662924
27	0xbcc39408	-0.023874298
28	0xbdfd4d33	-0.1236824
29	0xbe0bcddd	-0.1365275
30	0x3c1ffb6c	0.0097645335
31	0x3bd6e95c	0.0065585803
32	0xbd016a91	-0.03159577
33	0xbc9f246b	-0.019426545
34	0x3d7b14e7	0.06129923
35	0x3da7727a	0.081761315
36	0xbdc28cbb	-0.094994985
37	0x3c244243	0.010025564
38	0xbc65185a	-0.013982857
39	0xbe0d8f32	-0.13824156
40	0xbd6f326e	-0.058397703
41	0xbe152686	-0.14565477
42	0xbda88a8a	-0.08229549
43	0xbcb4f30c	-0.02208855
44	0x3bc54232	0.006019854
45	0xbdfe27ee	-0.1240996
46	0xbe14b7f9	-0.14523305
47	0xbd9a4cd5	-0.07534186
48	0xbddaf4b1	-0.106912024
49	0xbda620e9	-0.08111746
50	0xbd70360e	-0.0586453
51	0xbd127a05	-0.0357609
52	0x3c139bc3	0.009009304
53	0x3dd55f95	0.104186215
54	0x3e0bba10	0.13645196
55	0xbd40ef47	-0.047103193
56	0xbe841d33	-0.25803527
57	0x3db4eb43	0.08833935
58	0xbe037fd7	-0.12841736
59	0xbe6a22d8	-0.22864854
60	0x3d2c7788	0.04210618
61	0xbdd2a7f3	-0.1028594
62	0xbd992068	-0.07476884
63	0xbe466aa8	-0.19376624
64	0xbda728b3	-0.0816206
65	0x3c180a10	0.009279743
66	0x3b46c7f0	0.0030331574
67	0x3cdfa860	0.027301967
68	0x3caeab12	0.021321807
69	0x3dd0a937	0.10188525
70	0x3e0c7186	0.13715181
71	0x3e44e24e	0.19226953
72	0x3e4209cd	0.18949051
73	0x3e765c5d	0.24058671
74	0x3e183701	0.14864732
75	0x3d0344b8	0.032047957
76	0x3e270c76	0.16313347
77	0x3e9ec09a	0.31006318
78	0xbe1e53c8	-0.15461648
79	0xbd8ffd13	-0.07030692
80	0x3c689ce3	0.014197561
81	0x3d83e6b8	0.064404905
82	0x3d8bbc61	0.0682304
83	0x3c74096d	0.014894825
84	0x3b6fe15d	0.0036602833
85	0xbce21968	-0.027600005
86	0xbdd6bd68	-0.10485345
87	0xbdc16cd2	-0.09444584
88	0xbdcd334c	-0.1001955
89	0xbd802755	-0.06257502
90	0xbd65fa23	-0.056146752
91	0xbe18d1c1	-0.14923765
92	0x3cf553dc	0.029947214
93	0xbbf1d72f	-0.007380388
94	0xbdb9cf37	-0.09072726
95	0x3d061d22	0.032742627
96	0x3bb34d5c	0.0054718684
97	0xbdef2a9b	-0.11678048
98	0xbc965c49	-0.018354552
99	0x3e031f5b	0.1280493
100	0x3dbbe8ac	0.09175238
101	0xbcada5a7	-0.021197153
102	0x3e4a37df	0.19747876
103	0x3e146745	0.14492519
104	0x3bfb03b9	0.007660356
105	0x3ea7e20b	0.32789645
106	0x3e37d7e9	0.17953457
107	0xbcbd63c4	-0.023118861
108	0x3e4cc34a	0.19996372
109	0xbd13ef87	-0.036117103
110	0xbdd3fd1e	-0.10351013
111	0x3d113d0f	0.03545862
112	0xbd875496	-0.0660793
113	0xbe266e45	-0.16253002
114	0x3e1a4f46	0.15069303
115	0x3d39dc8a	0.045376338
116	0xbda59d92	-0.08086695
117	0x3defd6eb	0.11710914
118	0x3e093add	0.13401361
119	0x3d4bd8f8	0.049767464
120	0xbda4824b	-0.08032664
121	0xbad42a79	-0.0016186974
122	0xbd3d2b51	-0.046183888
123	0x3c4bbb75	0.01243483
124	0xbd0eaa66	-0.034830473
125	0xbbf1356e	-0.0073611056
126	0xbdf118a6	-0.117722794
127	0x3b960ff0	0.0045795366
128	0x3d8cdd57	0.06878155
129	0xbd388e74	-0.04505773
130	0xbde2aa8e	-0.11067687
131	0xbd28644b	-0.04111127
132	0xbcc017a2	-0.023448769
133	0x3c863cd3	0.016386425
134	0x3c8c84f0	0.017153233
135	0x3d444efe	0.047926895
136	0x3d71a44c	0.058994576
137	0xbd417b0f	-0.0472365
138	0x3d2031e8	0.039110094
139	0x3dcb8eb2	0.09939326
140	0x3d838883	0.06422522
141	0x3c99ac04	0.018758781
142	0xbc840569	-0.016115861
143	0xbcf9e91e	-0.030506667
144	0x3cc79546	0.024363171
145	0x3d5fa654	0.054601982
146	0x3d1cee9b	0.03831349
147	0xbdbc6711	-0.09199346
148	0x3e3e8aa0	0.18607569
149	0x3e993366	0.29922026
150	0x3d12c3ff	0.035831448
151	0x3db0cfa5	0.08633355
152	0x3e2186a8	0.15774024
153	0x3e13c6ab	0.14431255
154	0xbe26808c	-0.16259974
155	0xbdb8fe7b	-0.09032913
156	0x3e1322d6	0.14368758
157	0xbdee6823	-0.11640956
158	0xbe058f48	-0.13042939
159	0xbeb6b4d0	-0.35684824
160	0x3da60256	0.08105914
161	0xbdf8d9bc	-0.121509045
162	0x3dbdbc02	0.09264375
163	0x3d98a0bb	0.07452532
164	0xbde0b660	-0.10972285
165	0xbe35fbe7	-0.17771874
166	0xbe8dbfd7	-0.27685425
167	0xbdc73c1d	-0.097282626
168	0x3b09be3a	0.0021017925
169	0xbe0148f6	-0.12625489
170	0xbe409d02	-0.18809894
171	0x3e17d06b	0.14825599
172	0x3cd3cc65	0.025854299
173	0x3d604814	0.05475624
174	0x3d739d75	0.059476335
175	0x3e0ab271	0.13544632
176	0xbb39d8e1	-0.002835803
177	0xbdbe5d82	-0.09295179
178	0x3d17515b	0.03694282
179	0x3e0fb09d	0.14032216
180	0xbe96cc4f	-0.2945275
181	0x3e60c9ff	0.21952055
182	0x3ceba56d	0.028765405
183	0x3dbdce12	0.092678204
184	0x3bb2a513	0.0054518073
185	0xbd901d28	-0.07036811
186	0x3e49d392	0.19709614
187	0xbe92d747	-0.2867987
188	0xbe44d058	-0.19220102
189	0xbdc79344	-0.097448856
190	0xbd82b1d8	-0.06381577
191	0xbded4de9	-0.11587126
192	0xbd37f896	-0.044914804
193	0xbc6e81dd	-0.014557329
194	0xbd924a5d	-0.0714309
195	0xbdc79200	-0.09744644
196	0x3dcb7920	0.09935212
197	0x3cd5df93	0.026107585
198	0x3d555a97	0.052088346
199	0xbe412847	-0.18863021
200	0xbea40bab	-0.32040152
201	0xbcadc290	-0.021210939
202	0xbe899afa	-0.2687605
203	0xbe46d4ba	-0.19417086
204	0xbc3ebd6a	-0.0116418395
205	0xbcfa3f78	-0.030547842
206	0xbdca6d91	-0.098841794
207	0xbdde1a7e	-0.10844897
208	0x3c61c383	0.013779524
209	0x3e25683b	0.16153042
210	0xbd15b4fe	-0.03654956
211	0x3df0f998	0.11766356
212	0x3e24ff96	0.16113123
213	0x3d3a00e9	0.045411024
214	0x3c8b0964	0.016972251
215	0x3da2e2b4	0.079533964
216	0x3e5d2bd7	0.21598755
217	0xbe059398	-0.13044584
218	0xbca5aaf1	-0.020223113
219	0xbe515b66	-0.20445022
220	0x3e6e9d54	0.23302203
221	0x3e3e5f77	0.18591104
222	0xbeafe986	-0.34357852
223	0x3e1e18c5	0.15439136
224	0x3d71435d	0.058902133
225	0xbdd39f99	-0.10333175
226	0x3cf62a6a	0.030049521
227	0x3b462595	0.0030234803
228	0x3dc29a12	0.09502043
229	0x3e39760a	0.18111435
230	0x3e6f725c	0.23383468
231	0x3d3b5d78	0.045743436
232	0x3e1d7cc4	0.15379626
233	0x3cb890f7	0.022530062
234	0x3db30a53	0.087422036
235	0xbd5732c8	-0.052538663
236	0xbd4422aa	-0.04788462
237	0x3e7b93b5	0.24568065
238	0xbdfb06a6	-0.122571275
239	0xbe06286b	-0.13101356
240	0x3dcbcd95	0.09951321
241	0xbe29a8aa	-0.16568246
242	0x3dc51aee	0.09624277
243	0xbd5d33f8	-0.05400464
244	0x3da89a2f	0.08232533
245	0x3e837491	0.2567487
246	0x3e57d3b8	0.21076858
247	0xbc34d416	-0.011036893
248	0xbc94356c	-0.01809188
249	0xbe0fece8	-0.14055216
250	0x3d88b33f	0.066748135
251	0x3e8d6e74	0.27623332
252	0xbd904dab	-0.07046064
253	0xbde59caf	-0.11211526
254	0xbe587ebe	-0.21142098
255	0xbd76dbbf	-0.06026816

seq32_32.1.conv1.bias f4 [16]
0	0x3d80ed33	0.06295242
1	0x3d20cd64	0.039258376
2	0x3d91d14b	0.071199976
3	0xbc74cd68	-0.014941551
4	0xbd477332	-0.048693843
5	0xbd6e6adf	-0.05820739
6	0x3c39e941	0.011347116
7	0xbcc5e9d4	-0.02415935
8	0xbd2aafb8	-0.041671485
9	0xbd33c57f	-0.04388952
10	0x3d324d29	0.043530617
11	0x3d4021f6	0.046907388
12	0x3d237afd	0.039912213
13	0xbd1a2e40	-0.037641764
14	0xbc275ced	-0.010215026
15	0x3d03b6c9	0.03215674

seq32_32.1.bn1.weight f4 [16]
0	0x3f53a7c8	0.8267789
1	0x3f93b10d	1.1538407
2	0x3f415f23	0.7553579
3	0x3f3179b5	0.69326335
4	0x3f8ee07a	1.1162255
5	0x3f51292a	0.81703436
6	0x3f6204fe	0.8828887
7	0x3f715a31	0.94278246
8	0x3f4205fa	0.7579037
9	0x3f8fe7e3	1.1242641
10	0x3f573724	0.8406851
11	0x3f645fcd	0.8920868
12	0x3f1f312b	0.621844
13	0x3f5e0539	0.8672672
14	0x3f7b1d82	0.980919
15	0x3f929f11	1.1454793

seq32_32.1.bn1.bias f4 [16]
0	0xbe72ca85	-0.23710068
1	0xbdd8ab98	-0.10579604
2	0xbe6d763f	-0.23189639
3	0xbe809cde	-0.2511968
4	0xbdc3d99d	-0.09562991
5	0xbca7ccdf	-0.020483432
6	0xbede899c	-0.43464363
7	0xbe54eddc	-0.20793861
8	0xbdfdf166	-0.12399559
9	0xbe9fb28a	-0.31190902
10	0xbe531615	-0.20613892
11	0xbe411728	-0.1885649
12	0xbea2df57	-0.3181102
13	0xbe8888e7	-0.26666948
14	0xbe6c3462	-0.23066857
15	0xbe7e411f	-0.24829529

seq32_32.1.bn1.running_mean f4 [16]
0	0x3f3ea106	0.7446445
1	0xbe4ce66c	-0.20009774
2	0x3f5b036f	0.85552114
3	0x4007f580	2.1243591
4	0xbf7e6401	-0.99371344
5	0x3ee1c409	0.44094875
6	0x408629dc	4.19261
7	0xc0a68536	-5.203761
8	0xc020e4e1	-2.5139697
9	0xbfbedf3a	-1.4911873
10	0xc05b35e9	-3.4251654
11	0xbf8b1fdb	-1.0869097
12	0x3fac11f9	1.3442985
13	0xc0366d10	-2.8504066
14	0xbd699ee3	-0.05703629
15	0xbf8f7d7f	-1.1210173

seq32_32.1.bn1.running_var f4 [16]
0	0x410f90b5	8.972829
1	0x4102c862	8.173922
2	0x40d38996	6.610545
3	0x40cce757	6.4032397
4	0x4180d5be	16.104366
5	0x40a23f1b	5.0702033
6	0x40de9c8b	6.9566092
7	0x4189f224	17.243233
8	0x41278c4b	10.471751
9	0x41916e4c	18.178856
10	0x412db537	10.856742
11	0x40eb36fd	7.3504624
12	0x40eacd95	7.3375955
13	0x41420c11	12.127946
14	0x4113c3e3	9.235324
15	0x4182d3da	16.353443

seq32_32.1.conv2.weight f4 [16, 16, 3, 3]
0	0xbe1276db	-0.14303152
1	0x3dfd74d6	0.123758
2	0x3daa978e	0.08329688
3	0xbd36b648	-0.04460743
4	0x3e156f29	0.14593185
5	0x3e29db33	0.16587524
6	0xbe1a2a48	-0.15055192
7	0x3e6d0878	0.23147762
8	0x3ea108d9	0.31452063
9	0x3d8b7dc5	0.06811098
10	0x3dec449b	0.11536523
11	0x3e16c829	0.14724793
12	0x3c8061a6	0.015671562
13	0x3e217d72	0.1577051
14	0xbd90738f	-0.07053291
15	0xbeb0357c	-0.34415805
16	0xbe578fae	-0.21050903
17	0xbd1e2cb2	-0.038616844
18	0xbd6f5737	-0.058432784
19	0xbd11207a	-0.035431363
20	0xbdd78e56	-0.10525195
21	0x3dda99e6	0.10673885
22	0x3d44a31e	0.048007123
23	0xbd92fc03	-0.07176974
24	0x3e8cc4f5	0.27494016
25	0x3cfbd73f	0.030742286
26	0xbdcd246a	-0.10016711
27	0x3d821284	0.06351188
28	0x3d223470	0.03960079
29	0xbd1003c6	-0.03515985
30	0x3e15d6d6	0.14632735
31	0xbd594c97	-0.053051557
32	0xbcacccd1	-0.021093758
33	0x3d9102df	0.07080626
34	0x3d2935ab	0.041310947
35	0xbda37658	-0.07981557
36	0xbd6f90c7	-0.05848768
37	0x3c6876ea	0.014188508
38	0xbb233e24	-0.0024908865
39	0xbe16230d	-0.14661808
40	0xbbca06b7	-0.0061653513
41	0x3dbeffe8	0.09326154
42	0x3d9e1204	0.0771828
43	0x3e698718	0.2280544
44	0x3dfc6aba	0.12325044
45	0xbd64f3d3	-0.05589659
46	0xbd95b9da	-0.07310839
47	0xbd4ebc9c	-0.05047284
48	0xbdbd06fd	-0.092298485
49	0xbd54ab13	-0.05192096
50	0xbc8540e2	-0.01626629
51	0x3d9e7eb6	0.07739012
52	0xbdc4a79b	-0.09602281
53	0xbe1e742e	-0.15474007
54	0xbdd9f3dd	-0.10642216
55	0xbe34cb63	-0.17655711
56	0xbdd54eab	-0.10415395
57	0xbc1f63a6	-0.009728348
58	0xbe3150b6	-0.17315945
59	0xbce0aa12	-0.027424846
60	0x3d1cd528	0.03828922
61	0xbe2bb5d5	-0.16768582
62	0xbe0feb9e	-0.14054725
63	0xbe03e6ae	-0.12880966
64	0x3e160eb6	0.1465405
65	0x3e836d45	0.25669304
66	0x3c99b3d0	0.0187625
67	0x3e5ea9ab	0.2174441
68	0x3e5c91b6	0.2153996
69	0xbd5dcb06	-0.054148696
70	0x3ddca9f6	0.10774605
71	0x3e2bab00	0.1676445
72	0xbdad2094	-0.084534794
73	0x3d566fc7	0.052352693
74	0x3daebcfc	0.0853214
75	0xbd7d4f16	-0.061843
76	0x3dd402cd	0.10352097
77	0xbc4a6544	-0.012353245
78	0x3c8d2004	0.01722718
79	0x3d1e6e97	0.038679685
80	0x3cce76c9	0.025203126
81	0xbd1a0038	-0.037597865
82	0x3d96c073	0.073609255
83	0x3d52eec9	0.051497255
84	0x3c0b4659	0.008500659
85	0x3d76be83	0.06024028
86	0x3e603e14	0.21898681
87	0xbe0ef0ef	-0.13959096
88	0x3d502b4d	0.050822545
89	0x3e2f7292	0.17133549
90	0xbd92aafe	-0.071615204
91	0x3c7f8ebf	0.015597998
92	0x3df0e6a3	0.117627405
93	0xbdec76b4	-0.11546078
94	0x3d0c8186	0.03430321
95	0x3d9a469e	0.075330004
96	0xbe207568	-0.15669787
97	0xbc20f8e7	-0.009824968
98	0x3da6494b	0.08119448
99	0xbd0304ac	-0.031986877
100	0xbe042bee	-0.12907383
101	0xbd176c29	-0.036968384
102	0xbdcb2db1	-0.09920824
103	0x3d3f554b	0.0467122
104	0xbdf6c8f5	-0.12050048
105	0xbae8e77b	-0.0017769182
106	0x3d259b38	0.04043123
107	0x3bb8d952	0.005641141
108	0xbdee6772	-0.116408244
109	0xbdb51648	-0.088421404
110	0xbd6e397d	-0.058160294
111	0xbd9450fc	-0.07242009
112	0xbcd4dfb0	-0.025985569
113	0xbab033b8	-0.0013443148
114	0x3d587a29	0.052850876
115	0x3c87cebd	0.016578073
116	0xbc69cabe	-0.014269529
117	0xbd52403e	-0.051330797
118	0x3c801bb0	0.015638202
119	0x3e4ef1f0	0.2020948
120	0x3b59a779	0.0033211394
121	0x3c333315	0.010937472
122	0x3db9482d	0.090469696
123	0xbc80650a	-0.01567318
124	0x3d4051b9	0.046952937
125	0x3d620a4d	0.055185605
126	0xbeadba13	-0.33931026
127	0xbe2ebdd5	-0.17064603
128	0xbdf7e504	-0.12104228
129	0xbe7b59aa	-0.24545923
130	0xbe18f503	-0.14937215
131	0xbcc8d964	-0.024517722
132	0xbe57d740	-0.21078205
133	0xbd348054	-0.044067696
134	0xbce9a1ea	-0.02851959
135	0xbd475f77	-0.048675027
136	0x3d99a4a1	0.075021036
137	0x3e7fbb8c	0.24973887
138	0x3e1dde6f	0.15416883
139	0x3deec3d3	0.11658444
140	0x3ea07a06	0.31343096
141	0xbe0cd6d3	-0.13753824
142	0x3d4e8377	0.050418343
143	0x3e5c331f	0.21503876
144	0xbd9b1f11	-0.07574285
145	0xbdf2ffb4	-0.11865178
146	0xbe3c7a2f	-0.18405984
147	0xbde027fa	-0.10945125
148	0xbdc226aa	-0.09480031
149	0xbe27c38f	-0.16383193
150	0xbe312c40	-0.17302036
151	0xbd631773	-0.055442285
152	0x3cb257fb	0.021770468
153	0x3e3b2f5d	0.18279786
154	0x3df0b4a0	0.117532015
155	0xbde3dead	-0.111264564
156	0x3e929887	0.28631994
157	0x3e84db3f	0.25948521
158	0x3e4ac868	0.19803011
159	0xbe25dd8f	-0.16197799
160	0xbdddea39	-0.1083569
161	0x3d84e2e0	0.064885855
162	0x3cbbc0f9	0.022919165
163	0x3d128516	0.035771452
164	0xbd2a75d1	-0.041616265
165	0xbd244f0d	-0.04011445
166	0xbb8f1409	-0.004366402
167	0xbdb3991b	-0.08769437
168	0x3daafd88	0.083491385
169	0x3c7f1c53	0.015570718
170	0xbb83e424	-0.004024999
171	0xbc4da91e	-0.012552528
172	0xbd1c4a3f	-0.038156744
173	0x3e02ba94	0.12766486
174	0x3d3dd744	0.04634787
175	0x3dc85ab4	0.09782925
176	0x3e5507bb	0.2080373
177	0x3d064f5c	0.032790527
178	0x3d95ce92	0.07314791
179	0x3e5c71f3	0.21527843
180	0xbe1813d1	-0.1485131
181	0xbd2e8307	-0.042605426
182	0x3b62a65d	0.0034584024
183	0x3d740d0d	0.05958276
184	0x3eb512e2	0.3536597
185	0x3e70c31b	0.23511927
186	0x3e15bc64	0.14622647
187	0xbc9dd03d	-0.019264335
188	0x3dbbe339	0.09174199
189	0x3c8868bf	0.01665151
190	0x3e0daa48	0.13834488
191	0x3e2d7d52	0.16942337
192	0x3d2eab83	0.042644035
193	0x3e4c7c76	0.19969353
194	0x3e1d5c29	0.15367188
195	0x3bb0bee4	0.0053938497
196	0xbd34c499	-0.044132803
197	0xbd8488cd	-0.06471405
198	0xbe08eac0	-0.133708
199	0x3929c5e2	0.00016190813
200	0xbc86148b	-0.016367218
201	0xbd948da3	-0.072535776
202	0xbbcd7b8e	-0.0062708324
203	0x3d4f86b5	0.050665576
204	0xbd84fc56	-0.06493442
205	0x3ca756fd	0.020427221
206	0xbd837b7e	-0.06420039
207	0x3dc75a62	0.09734036
208	0xbd2c8720	-0.042121053
209	0x3c0529fe	0.0081276875
210	0xbde23cdd	-0.11046765
211	0xbdcb055e	-0.09913133
212	0xbdec8187	-0.11548143
213	0x3c64ed9b	0.013972665
214	0xbca4e349	-0.02012791
215	0xbce4ecab	-0.027944883
216	0x3cd7a928	0.026325777
217	0x3cacfd15	0.021116773
218	0xbdb11afe	-0.086477265
219	0x3b294814	0.0025830315
220	0xbd4f086c	-0.05054514
221	0x3dd350b9	0.10318131
222	0x3e4085c4	0.18801028
223	0x3aba4732	0.0014211892
224	0x3d47b466	0.048756026
225	0x3dd45616	0.10367982
226	0x3b50e79e	0.0031876336
227	0x3d58ccbb	0.05292962
228	0x3e734c75	0.23759635
229	0x3e3caf95	0.18426354
230	0x3ddf339f	0.10898518
231	0x3d4ca46c	0.049961492
232	0x3d9b2eb6	0.07577269
233	0x3e3f5bc6	0.18687353
234	0x3ddaefdd	0.106902815
235	0x3dea4ee1	0.11440826
236	0xbc292bdb	-0.010325397
237	0x3d039c51	0.032131497
238	0x3c3249cf	0.010881855
239	0xbc597642	-0.013272824
240	0x3c1bd70c	0.00951172
241	0xbd645ad5	-0.055750687
242	0xbd73e3ed	-0.05954354
243	0xbdbb2857	-0.091385536
244	0xbde4dc2a	-0.111748055
245	0xbd848ef2	-0.06472577
246	0xbe31b551	-0.17354323
247	0xbce7928b	-0.02826812
248	0xbd38916b	-0.045060556
249	0xbd00617c	-0.03134297
250	0x3c89266f	0.01674196
251	0x3dc50184	0.0961943
252	0xbe2b34bf	-0.1671934
253	0xbdd403c1	-0.103522785
254	0xbdbf926a	-0.09354098
255	0xbe709bf9	-0.23496999

seq32_32.1.conv2.bias f4 [16]
0	0xbc9616da	-0.018321443
1	0x3d731af5	0.05935188
2	0x3d599f88	0.053130656
3	0xbd2e2751	-0.042517964
4	0xbd4802c7	-0.048830774
5	0xbd4947e0	-0.04914081
6	0x3d80a90c	0.06282243
7	0x3d8bd23a	0.06827207
8	0x3ba5baf7	0.0050576883
9	0xbc0424e6	-0.008065438
10	0xbd8c2f20	-0.06844926
11	0x3c8e9594	0.017405309
12	0x3c292e87	0.010326034
13	0xbc262109	-0.010139712
14	0xbc462f2e	-0.012096209
15	0xbcb0c4ff	-0.02157831

seq32_32.1.bn2.weight f4 [16]
0	0x3f5061f5	0.8139947
1	0x3f07e936	0.53090227
2	0x3f53e16a	0.8276583
3	0x3f4e27e6	0.8052963
4	0x3f6736f6	0.9031824
5	0x3f43dbf8	0.7650752
6	0x3f3ad5a3	0.72982234
7	0x3f174c7b	0.59101075
8	0x3f3a767c	0.7283704
9	0x3f99fbb4	1.2029939
10	0x3f991db9	1.1962196
11	0x3f2af4af	0.6677961
12	0x3f826647	1.0187463
13	0x3f1e7cc2	0.61909115
14	0x3f3cbeae	0.73728454
15	0x3f42d1ad	0.7610119

seq32_32.1.bn2.bias f4 [16]
0	0x3e6f24f5	0.23353942
1	0xbe785dd6	-0.24254546
2	0xbe6fdebd	-0.23424812
3	0x3d235cb9	0.03988335
4	0xbe85834b	-0.2607673
5	0xbde3bc66	-0.111199185
6	0xbb8769d8	-0.0041324906
7	0x3de877ec	0.11350998
8	0xbda7146e	-0.081581935
9	0xbc9aa69c	-0.018878274
10	0x3dd89bae	0.105765685
11	0x3beeab9c	0.007283641
12	0xbd85c7dd	-0.065322615
13	0x3cf9d283	0.030495888
14	0x3d196f87	0.037459876
15	0xbd2143f9	-0.039371464

seq32_32.1.bn2.running_mean f4 [16]
0	0x3e528e58	0.20562112
1	0x3f415884	0.7552569
2	0xbf533291	-0.82499033
3	0xbf189f5b	-0.5961816
4	0x3f973d33	1.1815552
5	0x3f4a4f87	0.790276
6	0xbf192615	-0.59823734
7	0x3e67990d	0.22616978
8	0x3e015c27	0.1263281
9	0xbf734cfc	-0.95039344
10	0xc0101a5e	-2.2516093
11	0xbf9a902a	-1.2075245
12	0xbe7507ab	-0.23928706
13	0xbf456370	-0.77104855
14	0xbfd5b024	-1.6694379
15	0x3e35f917	0.17770801

seq32_32.1.bn2.running_var f4 [16]
0	0x3f92fe02	1.1483767
1	0x3f98ce8c	1.1938033
2	0x4009705f	2.1474836
3	0x3fa395c4	1.278008
4	0x3fe6e66b	1.8039068
5	0x3fe65c68	1.799695
6	0x3fafcafd	1.3733822
7	0x4002a5ea	2.0413766
8	0x3fdabcd3	1.7088875
9	0x3f9a3013	1.2045921
10	0x4037c6b5	2.871503
11	0x3fc2918b	1.5200666
12	0x3f87fccf	1.0624026
13	0x3febab51	1.8411657
14	0x4025250d	2.5803864
15	0x3fd3e77c	1.6555018
